Project Files/submission_20251210_134556/dqn_enhanced_checkpoint_0.pt (torch, 881535 bytes, 16 tensors)

network.0.weight f4 [256, 38]
0	0xbd84ab6a	-0.06478007
1	0xbd6076e7	-0.054800894
2	0x3e1886cd	0.14895172
3	0x3da1ab75	0.07894031
4	0xbd9f30bd	-0.07772968
5	0x3dbf4c96	0.093407795
6	0xbe230695	-0.1592048
7	0xbdaea876	-0.08528225
8	0xbdcbe9f8	-0.099567354
9	0xbd8dc99c	-0.069232196
10	0x3d539cb5	0.05166312
11	0x3dd71402	0.10501863
12	0xbd1715dd	-0.036886085
13	0xbe0d77df	-0.13815258
14	0x3de39dd7	0.1111409
15	0xbd5ac2ca	-0.05340842
16	0x3df79df7	0.12090676
17	0xbd3ad966	-0.045617484
18	0x3dc7c841	0.09754992
19	0xbd0bb23d	-0.03410553
20	0xbd7afd7d	-0.0612769
21	0xbda66dc3	-0.08126404
22	0xbd0bf842	-0.034172304
23	0x3cf8da9f	0.030377684
24	0xbd39ab19	-0.045329187
25	0xbe204476	-0.15651116
26	0xbb87057e	-0.0041205278
27	0x3da7a172	0.0818509
28	0x3e1a6202	0.1507645
29	0xbd6c12e1	-0.05763519
30	0xbcdd7524	-0.027033396
31	0xbc1d9192	-0.009617226
32	0xbb48235d	-0.0030538656
33	0x3df4190f	0.11918842
34	0xbcbe66ea	-0.023242433
35	0x3cabeb3d	0.020986194
36	0xbda6685c	-0.08125374
37	0xbd355c61	-0.044277553
38	0xbd0f8d22	-0.035046704
39	0x3d127258	0.035753578
40	0xbd9d9dc5	-0.07696108
41	0xbd704673	-0.058660936
42	0xbde7e4fd	-0.11322973
43	0x3e163f6a	0.14672628
44	0xbd79d195	-0.06099089
45	0xbe0b5026	-0.13604793
46	0x3d38f43c	0.045154795
47	0xbe188e77	-0.14898096
48	0x3e01198f	0.12607406
49	0xbd8e1f34	-0.06939545
50	0x3d622eb4	0.05522032
51	0x3d98ed2b	0.07467111
52	0x3dfcb0f4	0.12338439
53	0xbdee728a	-0.1164294
54	0xbb87e9bc	-0.0041477364
55	0xbc2c6c73	-0.010523903
56	0xbb5dbe77	-0.003383545
57	0xbe1fef9c	-0.15618747
58	0xbc8c813c	-0.017151468
59	0xbd9e8178	-0.07739538
60	0xbe17c697	-0.1482185
61	0xbd221e96	-0.03957995
62	0xbd7a1279	-0.061052773
63	0x3db32b82	0.08748533
64	0x3d2df952	0.0424741
65	0x3df1d18a	0.118075445
66	0xbe0238d7	-0.12716995
67	0xbe00b5dd	-0.12569375
68	0xbcde4e27	-0.027136875
69	0xbdc8e994	-0.098101765
70	0xbce09dfa	-0.02741908
71	0xbdd1e960	-0.10249591
72	0x3e078295	0.13233407
73	0x3daebe64	0.08532408
74	0xbbf0ea50	-0.007352151
75	0xbd724cd9	-0.05915532
76	0x3d72888b	0.05921225
77	0xbc7a9267	-0.015293694
78	0x3ce82fb6	0.028343063
79	0xbd0b740c	-0.034046218
80	0x3dfa5aef	0.122243755
81	0xbbbb9067	-0.005724001
82	0xbd8f3aed	-0.06993661
83	0xbdc60600	-0.09669113
84	0x3d85fae1	0.06541992
85	0xbd8152a2	-0.06314589
86	0xbe1134ba	-0.1418027
87	0xbd1dd5de	-0.038534038
88	0x3d14b3f9	0.036304448
89	0x3d276469	0.040867243
90	0x3d5f8236	0.05456754
91	0xbda69ecb	-0.08135756
92	0x3d00b197	0.031419363
93	0x3db31b56	0.08745448
94	0xbdaf5c8f	-0.08562576
95	0xbdbcca0a	-0.092182234
96	0x3d56cbf3	0.052440595
97	0xbdc0f145	-0.094210185
98	0x3d976726	0.07392721
99	0x3c4e4928	0.012590684
100	0xbe13f270	-0.14447951
101	0xbe0eb839	-0.13937463
102	0x3d397046	0.045273088
103	0x3c56ddcb	0.013114403
104	0x3de97bfe	0.11400603
105	0x3e118ea9	0.14214577
106	0x3ddb2a65	0.107014455
107	0xbc22bd38	-0.009932809
108	0xbdb34194	-0.087527424
109	0xbdb73ce1	-0.089471586
110	0x3d810c1e	0.06301139
111	0xbc445332	-0.011982726
112	0x3dd844e2	0.10560013
113	0x3e20a2bd	0.1568708
114	0xbd7dbee9	-0.061949644
115	0x3dcb2c24	0.099205285
116	0x3d8fb66b	0.07017215
117	0x3e044375	0.12916358
118	0x3e1e9aa2	0.15488675
119	0xbda2abfe	-0.07942961
120	0x3b9485c8	0.0045325495
121	0xbdcba78a	-0.09944065
122	0x3dbd590c	0.092455
123	0x3d40de4c	0.047087
124	0x3dc14e6d	0.09438787
125	0xbd2574a4	-0.04039444
126	0xbdaecc2e	-0.08535038
127	0xbca464dc	-0.020067625
128	0xbdacf5ec	-0.084453434
129	0xbda98f4c	-0.08279285
130	0xbd8055d2	-0.06266369
131	0xbdcec7fe	-0.10096739
132	0xbdc0452f	-0.09388196
133	0x3d6c366d	0.057669092
134	0x3bab3386	0.005224648
135	0xbe0abf21	-0.13549472
136	0x3d81c3c8	0.063361704
137	0x3dc8ef01	0.098112114
138	0xbe1a4e38	-0.150689
139	0x3e095a43	0.13413338
140	0xbcfe1512	-0.031015906
141	0x3c217d28	0.0098565
142	0xbdbcb743	-0.09214642
143	0x3b6c24c9	0.0036032668
144	0xbe10e8fa	-0.14151374
145	0x3e00492c	0.12527913
146	0xbdea1e34	-0.11431542
147	0x3d04e927	0.032448914
148	0x3c54dc34	0.012991954
149	0x3e145e63	0.1448913
150	0x3d3c98f2	0.046044298
151	0xbdbee380	-0.09320736
152	0x3dac4b50	0.08412802
153	0xbe088ebb	-0.13335697
154	0x3e00ef47	0.12591277
155	0xbd7fe20b	-0.06247143
156	0xbdfd4cde	-0.12368177
157	0xbd949bd5	-0.07256285
158	0x3e03ab8d	0.1285841
159	0xbe1ed3b8	-0.15510452
160	0x3d91b0cb	0.07113799
161	0x3d2c6108	0.042084724
162	0x3d75e461	0.060032252
163	0xbda38b4a	-0.07985552
164	0x3dfe4ec5	0.12417368
165	0x3cafeddb	0.021475723
166	0xbd270dc9	-0.04078463
167	0x3e22ea3d	0.15909667
168	0x3d9dbbc2	0.077018276
169	0x3d1ff2bc	0.03904985
170	0xbe1dbcb1	-0.15404011
171	0x3da705a4	0.08155373
172	0x3d193b88	0.03741029
173	0x3d9a5814	0.07536331
174	0xbddf3732	-0.108991995
175	0x3e04c25c	0.12964767
176	0xbe11445d	-0.14186235
177	0x3c46f9b0	0.012144491
178	0x3e094353	0.13404588
179	0xbcc839b6	-0.024441581
180	0xbd75a82d	-0.059974838
181	0x3e1379e7	0.14401971
182	0x3dcc3ec8	0.09972912
183	0x3da14b9b	0.07875749
184	0x3dcda881	0.10041905
185	0xbdb61e29	-0.08892471
186	0xbe03d0d1	-0.12872626
187	0xbbeb93c2	-0.007189245
188	0xbe1f9634	-0.15584642
189	0x3dc0ac96	0.09407918
190	0xbd81c42b	-0.06336244
191	0x3daef5f4	0.085430056
192	0xbcf5337f	-0.029931782
193	0xbd7d36af	-0.06181973
194	0x3def36a5	0.116803445
195	0xbceefb7f	-0.029172657
196	0xbe23e208	-0.16004193
197	0x3c6f620f	0.014610781
198	0xbda7a53d	-0.081858136
199	0xbdabd82d	-0.08390842
200	0xbd0759fd	-0.033044804
201	0xbde5b111	-0.11215413
202	0x3df64d4e	0.120264634
203	0x3dd53a21	0.10411478
204	0xbd34c795	-0.04413565
205	0xbd8b8da8	-0.06814128
206	0xbddf234d	-0.10895405
207	0xbe0059c0	-0.12534237
208	0x3cf2468f	0.02957466
209	0x3de26719	0.110548206
210	0xbda89047	-0.08230644
211	0xbd37ddf1	-0.044889394
212	0xbbc6406e	-0.006050161
213	0xbd86dd81	-0.06585217
214	0x3e213ef0	0.15746665
215	0xbd41c365	-0.047305483
216	0x3dd97abc	0.10619113
217	0xbd80489f	-0.062638514
218	0x3e07ecb2	0.13273886
219	0xbc4e95e3	-0.012608978
220	0xbe035312	-0.12824658
221	0x3bcea7f9	0.006306645
222	0xbe010ba7	-0.12602101
223	0xbe1bb643	-0.15206246
224	0xbd00c4d0	-0.031437695
225	0x3b94c997	0.004540633
226	0x3ddf7fd4	0.10913053
227	0x3d8453bc	0.064612836
228	0xbcfa07c9	-0.03052129
229	0xbd80ac46	-0.062828586
230	0xbdc9fb1d	-0.09862349
231	0x3d4ba2f3	0.049715947
232	0x3e0585db	0.13039343
233	0x3e027d57	0.12743126
234	0xbd9a47e0	-0.0753324
235	0x3e234d8f	0.15947555
236	0xbd82f614	-0.06394592
237	0x3e214122	0.15747502
238	0xbd154b3e	-0.03644871
239	0xbd4f696c	-0.050637648
240	0x3e2167f4	0.15762311
241	0xbd98870f	-0.074476354
242	0xbc42a811	-0.0118808905
243	0xbe089324	-0.1333738
244	0xbdd3fd1e	-0.10351013
245	0x3e2203e4	0.15821797
246	0xbda62c00	-0.08113861
247	0xbdd5474c	-0.104139894
248	0xbdafbc0b	-0.08580788
249	0x3c35db32	0.0110996235
250	0x3d9d7dbb	0.07689997
251	0x3d8f0413	0.06983199
252	0xbdf1f4b0	-0.118142486
253	0xbe1d8779	-0.1538371
254	0xbd7e1b60	-0.062037826
255	0x3e0303dc	0.12794441

network.0.bias f4 [256]
0	0x3d1e24b0	0.038609207
1	0xbd66ea51	-0.056375805
2	0xbe14a223	-0.14514975
3	0x3dffdcb0	0.12493265
4	0xbcbdda63	-0.023175424
5	0xbdf05cea	-0.11736472
6	0x3e0e2443	0.1388102
7	0x3d9f486c	0.07777485
8	0xbcd3081d	-0.025760705
9	0xbdb88d24	-0.090112954
10	0x3d238a6d	0.039926935
11	0xbdf30e6b	-0.118679844
12	0xbdeb3028	-0.114837945
13	0x3da33fbf	0.07971143
14	0xbc83a537	-0.016069992
15	0xbe095305	-0.13410576
16	0x3d5c8059	0.05383334
17	0x3d713fd8	0.058898777
18	0x3cd44414	0.025911368
19	0x3d64031e	0.055667035
20	0x3dabe633	0.083935164
21	0x3da196ed	0.07890115
22	0xbd9313b9	-0.07181496
23	0x3d85b81b	0.06529256
24	0xbe044208	-0.12915814
25	0xbd3d3a94	-0.046198443
26	0xbc953afb	-0.0182166
27	0xbdc87a3c	-0.09788939
28	0xbce1e05a	-0.0275728
29	0xbe21d51c	-0.15803951
30	0x3d8adfcf	0.06780969
31	0x3e0b5150	0.13605237
32	0xbdd20c3e	-0.10256241
33	0x3d116cb3	0.035504054
34	0x3db8933a	0.09012456
35	0x3d3d12f0	0.04616064
36	0x3bdd6375	0.006756241
37	0x3d409c60	0.04702413
38	0x3dfcbf11	0.123411305
39	0x3e00e39a	0.12586823
40	0xbdddb2ac	-0.108250946
41	0xbe177379	-0.14790143
42	0xbe06c51d	-0.1316113
43	0xbdebad64	-0.11507681
44	0x3d9c27ba	0.07624765
45	0xbc72b3f0	-0.014813408
46	0x3db401dd	0.08789418
47	0x3e09a20c	0.13440722
48	0xbd844ab1	-0.06459559
49	0xbd788a6c	-0.060678884
50	0x3e246186	0.16052827
51	0xbd0b515a	-0.03401313
52	0xbd966fa6	-0.07345514
53	0xbe128c72	-0.14311388
54	0x3dfe24b4	0.12409344
55	0x3e0cf3f2	0.13764933
56	0x3dd29055	0.102814354
57	0x3d5b6cb7	0.053570475
58	0xbce88b2a	-0.028386671
59	0xbdf0dde2	-0.11761071
60	0xbd8b2780	-0.067946434
61	0x3dc037f9	0.09385676
62	0xbddb998f	-0.10722648
63	0x3def37dd	0.11680577
64	0x3e1de620	0.15419817
65	0x3dcfd823	0.10148647
66	0xbb63ce99	-0.0034760593
67	0x3d7f5729	0.06233898
68	0xbdc117ce	-0.094283685
69	0xbdaab49d	-0.083352305
70	0x3c10d501	0.008839847
71	0x3e1aba66	0.15110168
72	0xbd894227	-0.06702071
73	0x3d6cbc57	0.057796802
74	0xbd24d40b	-0.040241282
75	0xbdee06ff	-0.11622428
76	0x3b5d4a50	0.0033766218
77	0xbda2a28b	-0.07941159
78	0xbce46f52	-0.027885113
79	0xbd381b7c	-0.044948086
80	0xbdb2ac49	-0.08724267
81	0x3e0ddb43	0.13853173
82	0xbd8b4e07	-0.06801992
83	0x3e082dfb	0.1329879
84	0x3d5f0e91	0.05445725
85	0x3de5e173	0.11224642
86	0x3d3c9bfd	0.0460472
87	0x3de72fe3	0.112884305
88	0xbd9383a5	-0.072028436
89	0x3e261b41	0.16221334
90	0xbdfddb83	-0.12395384
91	0x3e17a209	0.14807905
92	0x3e0871aa	0.1332461
93	0x3de71101	0.1128254
94	0x3c6897c7	0.014196343
95	0xbcfb2c84	-0.030660875
96	0xbdc947a8	-0.098281205
97	0xbc8b0915	-0.016972104
98	0x3e2408ee	0.16019031
99	0x3cf5ef44	0.030021317
100	0xbaf0397e	-0.0018327681
101	0xbe0470ad	-0.12933607
102	0xbdef098f	-0.11671745
103	0xbde0fd65	-0.10985831
104	0x3db920ce	0.0903946
105	0xbdb09871	-0.08622826
106	0xbd3393c4	-0.043842092
107	0xbe14e43e	-0.14540192
108	0x3e085db9	0.13317002
109	0x3d6bcaea	0.05756656
110	0x3e135751	0.14388777
111	0x3cad3c89	0.02114703
112	0x3bb298a5	0.0054503256
113	0xbd184f3c	-0.03718494
114	0xbe12cef1	-0.14336754
115	0x3c86ce18	0.016455695
116	0xbde13086	-0.10995583
117	0xbe24f917	-0.16110645
118	0x3de79717	0.11308115
119	0x3db5ab09	0.08870513
120	0x3e08bb5f	0.13352726
121	0x3d80f2f9	0.06296343
122	0xbe1a6d12	-0.1508067
123	0x3d94cd01	0.07265664
124	0x3dd15eb7	0.102231435
125	0x3c19bfb4	0.0093840845
126	0xbd95a2c1	-0.073064335
127	0x3e0dd778	0.13851726
128	0xbcd9aa49	-0.026570456
129	0x3d05a38b	0.03262667
130	0xbd3767de	-0.04477679
131	0xbcc61317	-0.024179025
132	0xbd71f6ba	-0.059073187
133	0x3d929733	0.07157745
134	0x3dcaf9a9	0.099109
135	0xbd8cdc5f	-0.0687797
136	0x3dc2df8f	0.09515297
137	0x3e2012f6	0.15632233
138	0xbdbd15bc	-0.09232661
139	0xbdd087bc	-0.10182139
140	0xbc194d18	-0.0093567595
141	0x3dd324c1	0.103097446
142	0xbe05b572	-0.13057497
143	0x3da15602	0.07877733
144	0xbd30ddfc	-0.04318045
145	0x3df390f7	0.11892884
146	0x3b8eb6b2	0.004355275
147	0x3e1ac21a	0.15113106
148	0x3dad67c7	0.084670596
149	0xbc57d436	-0.013173154
150	0xbda831b9	-0.08212609
151	0xbd437f4b	-0.047728818
152	0xbd890fbe	-0.06692456
153	0xbe20a70e	-0.15688726
154	0x3dd0e06d	0.10199056
155	0x3e066710	0.13125253
156	0x3d0cff0e	0.034422927
157	0xbdd6ac5e	-0.10482095
158	0xbb2ea247	-0.0026647018
159	0x3d4e6be4	0.05039586
160	0xbca4cd16	-0.020117324
161	0x3de2dac0	0.110768795
162	0x3da0758e	0.07834922
163	0x3dc9a1e9	0.09845335
164	0x3e0d8b5b	0.13822691
165	0xbd59ed53	-0.053204846
166	0x3ddf2f4e	0.108976945
167	0x3d8420ad	0.06451545
168	0x3d8297fd	0.06376646
169	0x3d5656f8	0.052329034
170	0x3e083788	0.13302433
171	0x3d6cefbe	0.057845823
172	0x3a1b23b2	0.00059181
173	0x3b3ff662	0.0029291143
174	0x3d37783b	0.044792395
175	0x3e0e8b6d	0.13920374
176	0x3dd2c708	0.102918684
177	0xbc25664e	-0.010095192
178	0xbd4e8561	-0.05042017
179	0x3e051843	0.12997536
180	0x3ded7774	0.115950495
181	0x3cc5e8e9	0.024158912
182	0xbcdecd94	-0.027197637
183	0xbd97b232	-0.07407035
184	0x3d81e3b1	0.06342257
185	0xba5cc9d6	-0.000842241
186	0xbdc58d9a	-0.09646149
187	0x3de50d1a	0.111841395
188	0x3dd804ea	0.10547812
189	0xbd032986	-0.03202202
190	0x3e043f21	0.12914707
191	0x3e212906	0.15738305
192	0x3d943bc4	0.07237962
193	0xbbd3f139	-0.006467965
194	0x3cbfddd9	0.023421215
195	0x3d8adbe2	0.067802206
196	0xbd930143	-0.07177975
197	0x3dafb4b2	0.08579387
198	0xbd7bd686	-0.061483882
199	0x3e12afa6	0.14324817
200	0xbbf29a4f	-0.007403649
201	0x3c76501d	0.015033749
202	0xbdd293a6	-0.10282068
203	0xbd743f07	-0.05963042
204	0xbd4a1f23	-0.0493461
205	0x3e18257e	0.14858052
206	0x3c260834	0.010133792
207	0xbcb4511e	-0.022011336
208	0xbe013107	-0.12616359
209	0xbce7b8d8	-0.028286383
210	0xbe20c555	-0.15700276
211	0x3e0fb5c0	0.14034176
212	0xbc05ea7f	-0.008173584
213	0x3e213b38	0.15745246
214	0x3dbecc2e	0.09316288
215	0xbdd4b895	-0.10386769
216	0x3e147dc9	0.14501108
217	0x3ce9085c	0.028446369
218	0xbd3ec72c	-0.046576664
219	0xbe1b3181	-0.15155603
220	0x3ddf3206	0.10898213
221	0x3d8522fc	0.06500813
222	0x3d4e59c3	0.050378572
223	0x3d916ee1	0.071012266
224	0xbe0a1dd3	-0.1348794
225	0x3c6ed978	0.014578216
226	0x3e19a743	0.15005212
227	0xbdd11812	-0.10209669
228	0x3e1a6366	0.1507698
229	0x3dcc313c	0.09970328
230	0x3d96e3df	0.07367682
231	0xbe0c6d89	-0.1371366
232	0xbde4d84c	-0.11174068
233	0x3c76875a	0.015046919
234	0x3c45532e	0.012043757
235	0x3de37316	0.11105935
236	0x3d423f21	0.047423486
237	0xbda239ca	-0.07921179
238	0xbc7a3cab	-0.015273253
239	0xbc851d5e	-0.016249355
240	0xbcb8f403	-0.022577291
241	0x3d9a6df3	0.075405024
242	0xbe1109bb	-0.14163868
243	0xbe1e6671	-0.15468766
244	0x3e119813	0.14218168
245	0x3dbdbace	0.09264146
246	0xbcece0f6	-0.028915863
247	0xbbdce8d2	-0.0067416215
248	0x3cfd148f	0.030893592
249	0xbce58708	-0.02801849
250	0x3cac1f11	0.021010907
251	0xbcff27f4	-0.03114698
252	0x3ca72070	0.02040121
253	0x3d1dd1f4	0.038530305
254	0x3e1353e2	0.14387468
255	0xbe2269a5	-0.15860613

network.3.weight f4 [256, 256]
0	0xbd02e524	-0.031956807
1	0xbc620218	-0.0137944445
2	0xbaeabfc0	-0.0017909929
3	0x3d67ec18	0.05662164
4	0x3ce93a58	0.028470203
5	0x3d2d9c16	0.042385183
6	0x3d5205ce	0.051275067
7	0xbd4ee5cc	-0.05051212
8	0x3d16ce52	0.036817856
9	0xbd0a8406	-0.033817314
10	0x3d36dfec	0.044647142
11	0xbc89f574	-0.016840674
12	0x3bfc77e0	0.00770472
13	0xbd633458	-0.05546984
14	0x3bbc09a0	0.005738452
15	0xbd4d6c56	-0.050152145
16	0x3d6a204c	0.057159707
17	0xbd5b5016	-0.053543173
18	0x3d05b382	0.032641895
19	0x3d425c2a	0.047451176
20	0xbd18332e	-0.037158184
21	0x3d47dd34	0.04879494
22	0x3cbc1aec	0.022962056
23	0x3c2f7448	0.010708876
24	0x3d429d0a	0.047513045
25	0x3d6ebc48	0.058285028
26	0xbcf96738	-0.030444726
27	0xbc92d2f4	-0.017922856
28	0x3d0faab0	0.03507489
29	0x3d2c5618	0.042074293
30	0xbcdfb2c8	-0.02730693
31	0xbd1d5d52	-0.038419075
32	0xbd746e52	-0.059675522
33	0x3d3221fc	0.04348944
34	0x3ca37e04	0.01995755
35	0xbd2adf50	-0.041716874
36	0xbd663e3c	-0.056211695
37	0xbcc18a00	-0.023625374
38	0xbd001308	-0.03126815
39	0x3d574e92	0.052565165
40	0x3d7e2fca	0.062057294
41	0xbb953b60	-0.004554197
42	0xbd5130a2	-0.05107177
43	0x3d766d9c	0.060163125
44	0xbd692236	-0.05691739
45	0xbd50068a	-0.050787486
46	0x3d463c7c	0.048397526
47	0xbcfa4820	-0.03055197
48	0xbc6e31b8	-0.014538221
49	0xbada1900	-0.0016639531
50	0xbc024518	-0.007951044
51	0x3d16b8c4	0.0367973
52	0x3bd6eb50	0.006558813
53	0x3c574a30	0.013140246
54	0xbd64f866	-0.055900954
55	0x3c9d0e30	0.019171804
56	0xbcd2f380	-0.025750875
57	0xbc660370	-0.0140389055
58	0xbd1b350a	-0.03789238
59	0x3d3705e0	0.044683337
60	0x3d1b6e36	0.037946902
61	0xbd56f650	-0.052480996
62	0xbb503380	-0.0031768978
63	0x37be6000	2.2694468e-05
64	0xbca40ca8	-0.020025566
65	0xbca856d8	-0.020549223
66	0xbb8adc10	-0.0042376593
67	0x3baa62a0	0.0051997453
68	0xbd7e5c80	-0.062099934
69	0x3d07bf72	0.03314156
70	0xbc14ef18	-0.0090902075
71	0x3c52cf78	0.012866847
72	0xbd0b8526	-0.034062527
73	0x3c8eb190	0.017418653
74	0x3b12c0c0	0.002239272
75	0xbd48fcbc	-0.04906915
76	0xbd2c9340	-0.042132616
77	0xbd4d8a98	-0.050181
78	0xbc8b00e0	-0.01696819
79	0xbb2a1fa0	-0.0025958791
80	0x3d6391f4	0.055559114
81	0x3c5650e0	0.013080806
82	0x3c8696a8	0.01642926
83	0xbc557f28	-0.013030805
84	0x3c6f1fb0	0.014594957
85	0xbaf6e100	-0.0018835366
86	0x3a7b7280	0.0009591952
87	0x3d62a606	0.055334114
88	0xbc79f9d8	-0.015257321
89	0xbbed7b10	-0.007247336
90	0xbc3541f8	-0.011063091
91	0x3d773832	0.060356326
92	0xbcb3a30c	-0.021928333
93	0x3cb32d3c	0.021872155
94	0xbd2f695c	-0.042825088
95	0xbd785d8a	-0.06063608
96	0xbd67a7be	-0.056556456
97	0x3d590c32	0.052990146
98	0x3d0890ea	0.033341326
99	0xbd332b18	-0.04374227
100	0xbcf1c760	-0.029514015
101	0xbcfe8fe0	-0.031074464
102	0xbd0e92ec	-0.034808084
103	0x3bc34190	0.0059587434
104	0xbce79bbc	-0.028272502
105	0xbcecd08c	-0.028908037
106	0xbd742908	-0.059609443
107	0xbcfda35c	-0.030961685
108	0xbd77f10c	-0.060532615
109	0x3d591934	0.05300255
110	0x3d276cec	0.04087536
111	0xbd4661a2	-0.048432954
112	0x3d0f19ae	0.0349366
113	0xbd7332a0	-0.05937445
114	0x3d28b582	0.041188724
115	0xbd1cf9e8	-0.038324267
116	0xbd1b7c78	-0.0379605
117	0xbccf88a8	-0.025333717
118	0xbd046ac6	-0.03232839
119	0xbb57ee20	-0.003294833
120	0x3d6aa1a8	0.057283074
121	0x3d069952	0.03286106
122	0x3c15a7a0	0.009134203
123	0x3a25e800	0.0006328821
124	0x3c111160	0.00885424
125	0xbd6301d4	-0.055421665
126	0x3d777dd8	0.06042275
127	0xbd5c7760	-0.053824782
128	0xbc025920	-0.007955819
129	0xbc565a30	-0.013083026
130	0x3d51497c	0.05109547
131	0x3cfac79c	0.03061276
132	0x3951b400	0.00019998848
133	0x3cee6040	0.02909863
134	0x3d1129b8	0.035440177
135	0x3b4b5860	0.0031028017
136	0xbc55f4a8	-0.013058819
137	0xbd783f3c	-0.06060718
138	0xbd09e660	-0.03366697
139	0x3c3938b8	0.011305027
140	0x3c188018	0.009307884
141	0xbca23e84	-0.0198052
142	0x3b62d1e0	0.0034609959
143	0xbc863d5c	-0.01638668
144	0xbd230ad4	-0.03980525
145	0xbc847540	-0.01616919
146	0xbc0c0c50	-0.008547857
147	0x3bab8d50	0.0052353516
148	0x3c5262d8	0.012840949
149	0xbbb8ddc0	-0.005641669
150	0xbd025476	-0.03181883
151	0xbd5b9530	-0.053609073
152	0x3d61e0ac	0.055145904
153	0xbd1553f6	-0.036457025
154	0xbcefa7fc	-0.029254906
155	0xbbd2c4a0	-0.006432131
156	0xbd450dc4	-0.04810883
157	0xbc9c77ec	-0.019100152
158	0xbd1e7c92	-0.03869302
159	0xbd64a278	-0.055819005
160	0xbd2d07cc	-0.042243764
161	0xbce657b0	-0.028117985
162	0x3b3229c0	0.002718553
163	0xbd618386	-0.05505707
164	0x3cec723c	0.028863065
165	0x3bbce300	0.005764365
166	0x3a27cd80	0.00064011663
167	0x3d487e68	0.048948675
168	0x3cb50d58	0.02210109
169	0xbcd8a758	-0.026446983
170	0xbd178e6a	-0.03700105
171	0xbca34d44	-0.019934304
172	0x3d20e94c	0.03928499
173	0xba87ca40	-0.0010359958
174	0x3d28485e	0.04108464
175	0xbd278ca2	-0.040905602
176	0x3c459a08	0.01206065
177	0x3c4edcc8	0.012625881
178	0xbd1cf78e	-0.038322024
179	0xbc63c6b8	-0.013902359
180	0xbcfe12dc	-0.031014852
181	0xbd35cf00	-0.044386864
182	0xbd23005a	-0.039795257
183	0xbcd2f450	-0.025751263
184	0xbd18c7b0	-0.03729981
185	0x3cc94b6c	0.024572097
186	0xbd31d5a6	-0.04341664
187	0x3d36052e	0.044438533
188	0xbd2824c0	-0.041050673
189	0x3ca2d17c	0.01987528
190	0xbcfd6d14	-0.030935802
191	0x3d53520c	0.051591918
192	0x3d75d348	0.060015947
193	0xbd72118c	-0.059098765
194	0x3d0174e6	0.031605624
195	0x3b126360	0.0022337064
196	0x3ce3a014	0.027786292
197	0xbd138aa4	-0.03602089
198	0x3d6f1770	0.05837196
199	0x3c88cbc8	0.016698733
200	0x3d5564d4	0.05209811
201	0x3c9c2294	0.019059457
202	0x3d09e418	0.033664793
203	0x3d75e990	0.060037196
204	0x3d396482	0.045261867
205	0x3d3f7acc	0.046747968
206	0x3b87d270	0.004144959
207	0xbd30085a	-0.042976715
208	0xbd64bc4c	-0.055843636
209	0xbc7fc788	-0.015611537
210	0xbd5b0e54	-0.05348046
211	0xbc5ae028	-0.013359107
212	0xbd53f758	-0.051749557
213	0x39f4bf00	0.00046681613
214	0x3cd95c10	0.026533157
215	0x3d037826	0.032097004
216	0xbcf21804	-0.029552467
217	0x3d2d25a0	0.04227221
218	0x3c1f6ee0	0.0097310245
219	0x3d496ece	0.049177937
220	0x3c7e1a70	0.015509233
221	0xbd3f1766	-0.046653174
222	0x3d2839ee	0.04107087
223	0xbcedf890	-0.029049188
224	0x3cb6bdc8	0.022307292
225	0xbc9ff9cc	-0.019528292
226	0x3ce0d78c	0.02744653
227	0xbbc33be0	-0.0059580654
228	0xbd375648	-0.04476002
229	0x3b8b5ad0	0.004252769
230	0x3b4e1640	0.0031446368
231	0x3c552880	0.013010144
232	0x3d105544	0.035237566
233	0x3d2affe0	0.041747928
234	0xbd47ee48	-0.048811227
235	0xbcc24224	-0.023713179
236	0x3c2676f8	0.0101602
237	0xbd048d4e	-0.03236132
238	0x3c9078d4	0.01763574
239	0x3cffe32c	0.031236254
240	0x3cafb4d4	0.02144853
241	0x3c422968	0.011850692
242	0xbcd23aa0	-0.02566272
243	0xbd253a6e	-0.040338926
244	0x3d43bd26	0.047787808
245	0x3b31a9c0	0.0027109236
246	0xbd709026	-0.05873122
247	0xbd24c134	-0.040223315
248	0xbcfdda70	-0.030987948
249	0x3d27edbc	0.040998206
250	0xbd05356e	-0.032521658
251	0xbbe8d8b0	-0.0071059093
252	0xbcb38dc0	-0.021918178
253	0x3d0df790	0.034659922
254	0xbc7ccca8	-0.015429653
255	0xbcc31780	-0.023814917

network.3.bias f4 [256]
0	0xbd0554e6	-0.03255167
1	0x378c0000	1.66893e-05
2	0xbd22f0dc	-0.039780483
3	0xbd7fc072	-0.06243939
4	0x3d7cf88c	0.06176047
5	0x3c7968c0	0.015222728
6	0xbd0e59cc	-0.034753606
7	0x3d2515e6	0.040304087
8	0x3d0eb1f6	0.034837686
9	0x3d2d849e	0.0423628
10	0x3d520f42	0.051284082
11	0x3c582b78	0.0131939575
12	0x3c498d08	0.012301691
13	0x3d525a86	0.05135586
14	0x3d7f23fe	0.062290184
15	0xbd0c0e8c	-0.03419356
16	0xb9205e00	-0.00015293807
17	0x3d1c4106	0.03814795
18	0xbd32b71c	-0.043631658
19	0x3d6134f2	0.054982133
20	0x3d73760c	0.05943875
21	0xbb11af40	-0.0022229701
22	0x3b633040	0.003466621
23	0xbbefa0b0	-0.0073128566
24	0x3d4ff6ce	0.05077248
25	0x3d6c71ee	0.05772584
26	0x3b365000	0.002781868
27	0xbd61a812	-0.055091925
28	0x3cc651b0	0.024208874
29	0xbbbb5b80	-0.0057176948
30	0xbd2d5c62	-0.04232443
31	0x3bb282f0	0.005447738
32	0xbc842108	-0.016129032
33	0x3d72c5c2	0.059270628
34	0xbce10174	-0.027466513
35	0xbcbee004	-0.023300178
36	0x3cd9c67c	0.026583903
37	0x3ba71940	0.0050994456
38	0xbcea3c28	-0.028593138
39	0xbbc3c890	-0.0059748366
40	0xbd510c5c	-0.051037177
41	0xbd52472a	-0.0513374
42	0x3d5650ac	0.05232303
43	0x3d15434c	0.036441132
44	0x3d65e416	0.056125723
45	0xbd79ba90	-0.060968935
46	0x3cb08dc4	0.021551974
47	0xbc3f2168	-0.0116656795
48	0x3d4780b8	0.04870674
49	0x3acbc740	0.0015547052
50	0x3cec32c4	0.0288328
51	0xbd1467b6	-0.03623172
52	0x3cc474b4	0.02398143
53	0xbd34062c	-0.0439512
54	0xbd6d1430	-0.05788058
55	0x3cec6cb8	0.028860435
56	0x3d373d16	0.04473599
57	0xba2d8000	-0.00066185
58	0x3d1c1326	0.0381042
59	0x3d06592c	0.032799885
60	0xbcb71888	-0.022350565
61	0xbce71b74	-0.028211333
62	0x3d310a6e	0.043222837
63	0x3d2cb118	0.042161077
64	0x3c4f8038	0.012664847
65	0xbaa9e5c0	-0.0012962148
66	0x3b820310	0.0039676502
67	0x3d49f3fe	0.049304955
68	0xbcadcf70	-0.021217078
69	0xbcbbbe60	-0.022917926
70	0x3d57e034	0.05270405
71	0xbd55ca58	-0.052194923
72	0x3bb5b460	0.005545184
73	0xbc800274	-0.01562617
74	0x3c84be10	0.01620391
75	0xbcf2d3dc	-0.029642038
76	0xbd7e335a	-0.06206069
77	0x3d71960e	0.058980994
78	0x3d5365c4	0.051610723
79	0x3ca2ee20	0.019888937
80	0x3c8ff2a8	0.017571762
81	0xbca50394	-0.020143308
82	0xbca935ec	-0.020655595
83	0x3d74b7ce	0.059745602
84	0xbd501fde	-0.05081164
85	0xbd2f0ee0	-0.042738795
86	0x3d3f33e6	0.046680354
87	0xbce67e98	-0.028136536
88	0xbce8a33c	-0.028398149
89	0xbbbf68c0	-0.0058413446
90	0x3cc5938c	0.024118207
91	0xbc3ff750	-0.011716679
92	0x3a4deb00	0.0007855147
93	0x3c17db58	0.009268604
94	0x3d4833c2	0.048877485
95	0x3d668b0e	0.056284957
96	0x3cc0da34	0.023541547
97	0xbcb77f60	-0.022399604
98	0xbd5533e6	-0.052051447
99	0xbbfb0d60	-0.0076615065
100	0x3c205f28	0.009788312
101	0x3c3c3610	0.011487499
102	0xbd6b6e7a	-0.057478406
103	0x3c5045b8	0.012711935
104	0xbb6be8e0	-0.0035996959
105	0xbd55af04	-0.05216886
106	0x3d662ee6	0.05619707
107	0xbc607d00	-0.013701677
108	0xbb4add80	-0.0030954778
109	0x3ad7dc40	0.0016468838
110	0xbca6e790	-0.02037409
111	0x3bbdbab0	0.005790077
112	0xbcef8bf8	-0.029241547
113	0x3ba24ff0	0.004953377
114	0xbd6ebb8a	-0.05828432
115	0xbd69949e	-0.057026498
116	0xbd517c7c	-0.05114411
117	0x3ca1ba04	0.01974202
118	0x3be69d10	0.0070377663
119	0x3cbdd570	0.023173064
120	0xbbe4d310	-0.0069831684
121	0x3ce8c454	0.028413929
122	0x3c9575e4	0.018244691
123	0xbc0314c8	-0.00800056
124	0x3d275aa0	0.04085791
125	0x3d380ff4	0.04493709
126	0x3d434cf6	0.047680818
127	0xbcb65018	-0.022254989
128	0x3d6aad76	0.05729433
129	0xbcbd94a4	-0.023142166
130	0x3cd8c4e8	0.02646108
131	0xbd584712	-0.052802153
132	0xbcb6aff0	-0.02230069
133	0xbce03408	-0.02736856
134	0x3d65a874	0.056068853
135	0x3d3698c4	0.044579282
136	0xbd708ec6	-0.05872991
137	0xbd7e071a	-0.06201849
138	0x3d3979f0	0.045282304
139	0x3d376402	0.04477311
140	0x3d186d76	0.037213765
141	0x3d49a956	0.049233757
142	0x3d5a8bd8	0.05335602
143	0x3d24759a	0.040151216
144	0x3ca27ae4	0.01983399
145	0xbcf80a60	-0.030278385
146	0xbc9a1674	-0.018809535
147	0x3cd56674	0.02604983
148	0x3d7f1390	0.062274516
149	0xbd26cd92	-0.04072339
150	0x3cacda98	0.021100327
151	0x3b097e80	0.002097994
152	0xbcb59ca8	-0.022169426
153	0xbd3eaae6	-0.0465497
154	0xbd16239c	-0.036655053
155	0xbce40320	-0.027833521
156	0xbd041e2e	-0.032255344
157	0x3d2b61f8	0.041841477
158	0xbd32b462	-0.043629058
159	0x3d5d3ef2	0.054015107
160	0x3d172240	0.036897898
161	0x3cfa3400	0.030542374
162	0xbb8047d0	-0.0039148107
163	0xbb8e2510	-0.0043379143
164	0xbc505f90	-0.012718096
165	0xbd5b862e	-0.05359476
166	0x3be2c7d0	0.006920792
167	0xbcc77a94	-0.024350442
168	0x3d717c9a	0.05895672
169	0xbd6b4bec	-0.05744545
170	0xb9de7400	-0.00042429566
171	0xbc977e14	-0.018492736
172	0x3c3430b8	0.010997944
173	0x3cc4da58	0.024029896
174	0xbd27a61c	-0.0409299
175	0xbd5f40e4	-0.054505244
176	0xbb633960	-0.003467165
177	0x3c473528	0.0121586695
178	0x3d53c3e2	0.05170048
179	0xbb4c51c0	-0.0031176656
180	0x3bf98c10	0.0076155737
181	0x3c496c90	0.01229395
182	0x3d12f306	0.035876296
183	0x3d0a2094	0.033722475
184	0xbd088288	-0.03332761
185	0x3d03fb24	0.03222193
186	0x3b05a0e0	0.0020390078
187	0x3c9c55a4	0.019083805
188	0x3c895230	0.016762823
189	0xbd39923e	-0.045305483
190	0x3c30dd88	0.010795005
191	0xbc032578	-0.008004539
192	0x3cbc42b4	0.022981025
193	0xbb87fe80	-0.004150212
194	0x3d1e8f0a	0.03871063
195	0xbd3c1f6e	-0.04592841
196	0xbd2ae422	-0.04172147
197	0x3d5c9148	0.05384949
198	0xbd29272c	-0.041297123
199	0xbd39eb9a	-0.045390703
200	0xbd087cfe	-0.033322327
201	0x3d730d68	0.059338957
202	0xbc754a08	-0.014971264
203	0xbcdb29d8	-0.026753351
204	0xbc4a6090	-0.012352124
205	0xbc460220	-0.012085468
206	0x3bf0a050	0.0073433295
207	0xbcfd4dc4	-0.03092087
208	0x3c95d564	0.01829023
209	0xbce7de78	-0.028304324
210	0x3cc1b100	0.02364397
211	0x3ba59b00	0.005053878
212	0x3982a200	0.00024916232
213	0x3ce28be4	0.027654596
214	0x3d2e039a	0.042483903
215	0x3d2c34a2	0.042042382
216	0xbd1f34ac	-0.03886859
217	0x3d7e4f06	0.06208708
218	0xbd29c264	-0.04144515
219	0xbd5f9b0e	-0.05459123
220	0xbd66a470	-0.056309164
221	0x3c7c7330	0.015408322
222	0xbd0774ee	-0.033070497
223	0x3d65904c	0.056045815
224	0xbd3b4fc0	-0.045730352
225	0xba396080	-0.00070715696
226	0x3d2bf486	0.041981243
227	0x3c1d9b70	0.009619579
228	0xbd1420aa	-0.036163963
229	0x3b528de0	0.003212802
230	0xbd5f317e	-0.05449056
231	0x3a838140	0.0010033026
232	0xbd6dbd0a	-0.05804161
233	0x3d10ca96	0.03534945
234	0x3d14ab2e	0.036296062
235	0xbc565bc0	-0.013083398
236	0xbcd4e338	-0.025987253
237	0xbd7c1284	-0.061541095
238	0xbd70453e	-0.058659784
239	0x3d32cce4	0.04365243
240	0xbc9ffd98	-0.019530103
241	0xbd720510	-0.05908686
242	0x3cf7859c	0.030215077
243	0xbd630f0e	-0.05543428
244	0x3d44a372	0.048007436
245	0xbd11bf78	-0.03558299
246	0x3d386108	0.04501441
247	0x3d40997e	0.04702138
248	0x3c85efb8	0.016349658
249	0xbba6cdc0	-0.0050904453
250	0x3bd48d60	0.00648658
251	0xbd04af16	-0.032393537
252	0x3cd424f4	0.025896527
253	0x3d55de2c	0.052213833
254	0x3d7cd708	0.061728507
255	0x3c377720	0.011197835

network.6.weight f4 [128, 256]
0	0x3cb65514	0.022257365
1	0xbd6a3c26	-0.05718627
2	0x3d0696e4	0.032858744
3	0xbc540060	-0.0129395425
4	0x3d7416f6	0.05959221
5	0xbca89488	-0.020578638
6	0x3cf80334	0.030274965
7	0x3ccc6538	0.024950609
8	0x3c859d9c	0.016310506
9	0xbcab1b68	-0.020887092
10	0x3c8ea790	0.017413884
11	0x3d540022	0.05175794
12	0xbb859b50	-0.0040773526
13	0x3c9781d4	0.018494524
14	0x3d7eb772	0.062186666
15	0xbd2f591c	-0.04280959
16	0xbc80a930	-0.015705675
17	0x3d288c52	0.041149445
18	0x3d2a5f6e	0.041594915
19	0xba8a9dc0	-0.0010575578
20	0xbce59180	-0.028023481
21	0x3bdcb5f0	0.006735556
22	0xbd2cfeb8	-0.042235106
23	0x3d71f0c8	0.059067518
24	0x3c0cb088	0.00858701
25	0x3c683dc0	0.014174879
26	0x3ad1e500	0.0016013682
27	0x3d3eb2fe	0.04655742
28	0x3d32a916	0.043618284
29	0x3d1a7c78	0.03771636
30	0xbc920d28	-0.017828539
31	0x3c23e6d8	0.010003768
32	0x3d0a80e2	0.03381432
33	0xbc725408	-0.014790542
34	0x3d54019e	0.051759355
35	0x3c7e07d8	0.0155048
36	0x3cf87f2c	0.030334078
37	0x3ca8e9c0	0.020619273
38	0xbc577980	-0.013151526
39	0xbcadca04	-0.021214493
40	0xbc0e8670	-0.008699045
41	0x3c850938	0.016239747
42	0x3d33a1fe	0.04385566
43	0xbc9da3f0	-0.01924321
44	0x3d57defe	0.052702896
45	0xbc429070	-0.011875257
46	0xbd3e59ba	-0.04647229
47	0x3cd7d14c	0.026344918
48	0xbc1565e0	-0.009118527
49	0xbd0436e2	-0.032278903
50	0x3d045568	0.032308012
51	0xbc8f0b7c	-0.01746153
52	0xbc077e10	-0.008269802
53	0x3cdef9a0	0.02721864
54	0x3c56d8d0	0.013113216
55	0xbcf65160	-0.0300681
56	0xbcd23d80	-0.025664091
57	0xbcb414a8	-0.021982506
58	0xbd2a6ec4	-0.04160954
59	0x3cc72eb0	0.024314255
60	0x3d7ab820	0.06121075
61	0x3c6c0ff8	0.014408104
62	0x3aaae480	0.0013038069
63	0xbcd82340	-0.026383996
64	0xbc4556d0	-0.0120446235
65	0x3cbf212c	0.023331247
66	0xbc9ac170	-0.018891066
67	0x3c094bb0	0.008379862
68	0xbd206b22	-0.03916467
69	0xbd71ad7e	-0.059003346
70	0x3d2df1a8	0.04246679
71	0xbd4e7f28	-0.050414234
72	0x3c81addc	0.015829973
73	0xbd252f48	-0.040328294
74	0xbd72feec	-0.059325144
75	0xbd530c2e	-0.051525287
76	0x3d589f32	0.052886195
77	0x3d6fa81c	0.05850993
78	0xbca581f0	-0.02020356
79	0x3cc7f794	0.024410047
80	0x3d498980	0.049203396
81	0x3d4e2180	0.050324917
82	0x3d3ff0f8	0.046860665
83	0xbb2bb800	-0.0026202202
84	0xbd17e2ec	-0.037081644
85	0x3cf849e0	0.030308664
86	0xbcecbecc	-0.028899573
87	0x3c87b6d0	0.016566664
88	0x3cc07fb0	0.023498386
89	0xbd71e30c	-0.05905442
90	0x3d1f67f0	0.038917482
91	0xbbe4f680	-0.006987393
92	0x3d43feec	0.047850534
93	0xbd456ad0	-0.048197567
94	0x3b450200	0.0030061007
95	0xbd5dfbc6	-0.054195188
96	0xbd7a6e0c	-0.061140105
97	0xbd687ae6	-0.05675783
98	0x3c89f838	0.016841993
99	0xbcfd5000	-0.030921936
100	0xbcbc75a0	-0.023005307
101	0xbcc305b4	-0.02380643
102	0x3d012518	0.031529516
103	0xbd1ee414	-0.03879173
104	0xbd2a6bb8	-0.041606635
105	0xbc013bf0	-0.007887825
106	0xbcb32d88	-0.021872297
107	0xbc407050	-0.011745527
108	0x3b9941c0	0.0046770275
109	0xbd3dcb9c	-0.046336755
110	0xbc417d40	-0.011809647
111	0xbc589268	-0.0132185
112	0x3d55d96a	0.052209295
113	0x3d6f131c	0.058367833
114	0x3cb236a0	0.021754563
115	0xbcd29bc4	-0.02570904
116	0xbd7764a6	-0.06039872
117	0xbc826650	-0.015917927
118	0x3d2428e4	0.04007806
119	0xbd419c34	-0.047268108
120	0xbd7a1c9e	-0.061062448
121	0xbd6a912a	-0.057267345
122	0xbca6ee68	-0.020377353
123	0xbd648b6a	-0.055797018
124	0xbcd01b1c	-0.025403552
125	0xbc506798	-0.012720011
126	0x3d4cd27e	0.05000543
127	0xbd0b77be	-0.034049742
128	0xba9bbec0	-0.001188241
129	0xbd38206e	-0.044952802
130	0x3d60909e	0.054825418
131	0xbcc80530	-0.024416536
132	0x3d6ca958	0.057778686
133	0xbbc6c510	-0.006065972
134	0x3d7f1538	0.062276095
135	0xbd011bd6	-0.031520687
136	0x3c9f5688	0.019450441
137	0xbd06a990	-0.03287655
138	0xbd4d0644	-0.050054803
139	0x3d435de8	0.047696978
140	0xbd282c46	-0.041057847
141	0x394d9c00	0.00019608438
142	0x3d3114a4	0.043232575
143	0x3c66d860	0.014089674
144	0x3d339212	0.043840475
145	0x3cc30320	0.023805201
146	0xbd30f4b0	-0.043202102
147	0x3cfca028	0.030838087
148	0x3bfeac40	0.0077719986
149	0x3d357d7a	0.044309117
150	0x3c812324	0.015763827
151	0xbcca5738	-0.024699792
152	0xbb7b4e00	-0.0038346052
153	0x3d63b6f2	0.055594392
154	0x3b105180	0.0022021234
155	0xbd50bb2a	-0.050959744
156	0xbcb53a3c	-0.022122495
157	0xbd77a33e	-0.060458414
158	0xbd63e964	-0.0556425
159	0xbd233540	-0.039845705
160	0xbd6bcc56	-0.057567917
161	0x3d253b96	0.04034003
162	0x3b07ef40	0.002074197
163	0xbc6029f8	-0.013681881
164	0xbb2d3880	-0.0026431382
165	0xbc564678	-0.0130783245
166	0x3d7911c0	0.060807943
167	0x3c867954	0.016415276
168	0xbd59c530	-0.05316657
169	0xbc9a25f4	-0.018816926
170	0xbcf74518	-0.030184314
171	0xbd0d7f74	-0.034545377
172	0x3c6a8bd8	0.014315568
173	0x3d78310e	0.060593657
174	0xbce28db4	-0.02765546
175	0xbd54bf5a	-0.0519403
176	0xbd62cd0a	-0.05537132
177	0xbc3b8110	-0.011444345
178	0xbab379c0	-0.00136929
179	0x3c8242ec	0.015901051
180	0xbcc1fef4	-0.023681141
181	0xbb8182a0	-0.0039523393
182	0x3bfa46c0	0.0076378286
183	0xbd2f07ec	-0.042732164
184	0x3d6e3d12	0.05816371
185	0x3d18f6f4	0.037344888
186	0xbc128fe0	-0.008945435
187	0x3ba2fd90	0.0049740747
188	0xbcb84e48	-0.022498265
189	0xbca97970	-0.020687789
190	0xbd4a6d0e	-0.04942041
191	0xbc8007f0	-0.015628785
192	0xbbe106e0	-0.0068672746
193	0xbd7b5652	-0.06136162
194	0xbc886f70	-0.0166547
195	0xbcf0c060	-0.029388607
196	0x3ca25554	0.019816078
197	0x3d5053fe	0.05086135
198	0xbcf8ac94	-0.03035573
199	0x3b8823b0	0.004154645
200	0x3d4169d2	0.04722006
201	0xbcb28850	-0.021793514
202	0x3d086bb2	0.03330583
203	0xbd060740	-0.032721758
204	0xbd57a1c0	-0.05264449
205	0x3c185ed0	0.009299949
206	0xbd3af91e	-0.045647733
207	0x3c36b0a8	0.011150517
208	0xbd10da1c	-0.035364255
209	0xbcc06f04	-0.023490436
210	0xbd4d0b18	-0.050059408
211	0xbc6b3730	-0.014356419
212	0xbcc8ca40	-0.024510503
213	0xbd3586be	-0.044317953
214	0x3cc82dac	0.02443584
215	0x3d766e96	0.060164057
216	0x3c84bb2c	0.016202532
217	0xbbb168d0	-0.005414106
218	0x3c227130	0.009914681
219	0xbd1d5dd6	-0.038419567
220	0x3ca0c1e8	0.019623712
221	0xbca47748	-0.020076409
222	0xbd626652	-0.05527336
223	0x3d3a1502	0.04543019
224	0x3d50ccb0	0.050976455
225	0x3ac88000	0.0015296936
226	0x3d2186f6	0.03943535
227	0xbd1e31b2	-0.038621612
228	0xbae00c40	-0.0017093495
229	0x3c805574	0.015665747
230	0xbd088e0a	-0.033338584
231	0xbc25f210	-0.010128513
232	0xbd418e5e	-0.047254913
233	0xbbfad6a0	-0.00765498
234	0xbd039f42	-0.032134302
235	0x3cae755c	0.021296196
236	0x3c5e4af8	0.013567679
237	0x3d5cfeea	0.053954042
238	0xbd123cc4	-0.035702482
239	0x3d2a69a8	0.041604668
240	0xbce7e404	-0.028306969
241	0x3d2541d6	0.04034599
242	0x3b3dd9c0	0.00289689
243	0xbc8f3478	-0.017481074
244	0xbd1a3540	-0.03764844
245	0x3bd52610	0.0065047815
246	0xbd39ac28	-0.045330197
247	0x3d6ab5cc	0.05730228
248	0xbd4bf21a	-0.049791433
249	0x3d6c9200	0.057756424
250	0x3d5c967a	0.053854443
251	0x3d4f39e0	0.050592303
252	0x3c14b738	0.009076886
253	0xbacb6ec0	-0.0015520677
254	0x3c978274	0.018494822
255	0x3c1edd98	0.009696387

network.6.bias f4 [128]
0	0x3d552f98	0.052047342
1	0xbc371a98	-0.011175774
2	0xbd4f7394	-0.050647333
3	0xbb902270	-0.0043986365
4	0xbd61a1a4	-0.055085793
5	0x3c465f38	0.012107663
6	0x3d71c250	0.0590232
7	0xbd24e0e4	-0.040253535
8	0xbc036908	-0.008020647
9	0x3ca98bd4	0.020696558
10	0x3d585156	0.052811943
11	0x3c4771f8	0.012173168
12	0xbd4e4252	-0.050356217
13	0x3d3d67ac	0.046241447
14	0x3c6ab198	0.014324568
15	0xbce3f334	-0.02782593
16	0x3d204d5a	0.03913627
17	0xbc18c2a0	-0.009323746
18	0x3d43ff1e	0.04785072
19	0xbcd3fd8c	-0.025877737
20	0x3b841bf0	0.0040316507
21	0xbc9e3bb4	-0.019315578
22	0x3d562646	0.052282594
23	0x3d65b460	0.056080222
24	0xbbcf6190	-0.006328769
25	0xbd593b50	-0.05303508
26	0x3c45ab00	0.012064695
27	0x3beeef70	0.007291727
28	0x3d0e4fde	0.034744136
29	0x3d57842a	0.052616276
30	0x3cc2fc48	0.023801938
31	0xbd7cf4e2	-0.061756976
32	0xbc36cb90	-0.0111569315
33	0x3cefec10	0.029287368
34	0x3cb1b440	0.021692395
35	0x3b35b1c0	0.0027724355
36	0x3bf9b290	0.0076201633
37	0x3c2e9720	0.010656148
38	0xbd4d10d2	-0.05006487
39	0x3d75e04a	0.06002835
40	0x3d0dd6ba	0.034628607
41	0xbd381f12	-0.044951506
42	0x3b08e960	0.0020891055
43	0x3d1e71dc	0.038682804
44	0x3d4a9b4e	0.049464516
45	0x3b3bb7e0	0.0028643534
46	0x3d7a13de	0.061054103
47	0x3cdaa21c	0.026688628
48	0x3ca3cfc0	0.019996524
49	0xbbae8890	-0.005326338
50	0x3c797f80	0.015228152
51	0x3d7b338c	0.061328456
52	0xbbc69750	-0.0060605183
53	0x3ccb55c8	0.024821177
54	0xbc1cdbf0	-0.009573922
55	0xbc8729ec	-0.016499482
56	0xbc60f440	-0.013730109
57	0xbd2ac490	-0.041691363
58	0x3c6a4ed8	0.014301024
59	0x3d6bbcc6	0.057553075
60	0x3cf2c80c	0.029636405
61	0x3cd89164	0.026436515
62	0xbd2539b6	-0.04033824
63	0x3d73663e	0.059423678
64	0x3cb124c4	0.021623977
65	0x3d69d124	0.057084218
66	0xbcb08d48	-0.021551743
67	0x38c4e800	9.389222e-05
68	0x3cb3d008	0.021949783
69	0xbcba6278	-0.022752032
70	0xbccd6e70	-0.025077075
71	0x3d4e47b4	0.05036135
72	0xba923b40	-0.0011156574
73	0x3d48645a	0.048923828
74	0xbd3059a4	-0.043054238
75	0xbcb4e858	-0.022083446
76	0x3c7d1520	0.015446931
77	0x3c872e1c	0.016501479
78	0xbc3fcce0	-0.011706561
79	0x3bea7cc0	0.0071559846
80	0xbcb9acf0	-0.02266547
81	0x3bcd15c0	0.0062586963
82	0xbd79fbbc	-0.06103109
83	0xbd36ff1c	-0.044676885
84	0xbce4be30	-0.02792272
85	0x3d7b9e00	0.061429977
86	0xbcfd92c8	-0.03095378
87	0x3c03afe8	0.008037545
88	0xbbc79440	-0.006090671
89	0xbd68940a	-0.056781806
90	0xbce85f60	-0.02836579
91	0xbc8ec7a4	-0.01742918
92	0x3d7b0fde	0.06129443
93	0xbc95f2a0	-0.01830417
94	0x3d233f8a	0.039855517
95	0x3d7cc9d8	0.06171593
96	0x3adbdc00	0.0016773939
97	0x3bbd6550	0.0057798997
98	0x3d16b2ce	0.036791615
99	0x3cf6b61c	0.030116133
100	0x3d6f30f6	0.058396302
101	0xbcb96d90	-0.022635251
102	0x3d175fa6	0.03695645
103	0x3c87fbbc	0.016599528
104	0xbc433d78	-0.011916511
105	0x3ca32ea4	0.0199197
106	0x3d32d038	0.043655604
107	0xbd3f08d0	-0.046639264
108	0x3cc020a8	0.023453072
109	0xbc672d90	-0.014109984
110	0xbd58081c	-0.05274211
111	0x3d4d5016	0.050125204
112	0xbd5b868e	-0.05359512
113	0x3b765600	0.003758788
114	0xbd4c60d2	-0.049897023
115	0xbd3d8bac	-0.04627578
116	0xbd58b378	-0.05290553
117	0xbc81b77c	-0.015834562
118	0xbd2160a0	-0.03939879
119	0x3cc29158	0.023750946
120	0xbc91aa3c	-0.01778137
121	0x3cbdbb44	0.023160584
122	0xbd20cfa6	-0.03926053
123	0xbd15172e	-0.03639906
124	0xbcc25bd8	-0.023725435
125	0x3d364ea8	0.044508606
126	0xbd718776	-0.058967076
127	0xbd24e004	-0.0402527

network.9.weight f4 [5, 128]
0	0x3d0d4c1a	0.034496404
1	0x3d7d74f2	0.061879106
2	0x3d36e078	0.044647664
3	0xbd35fa32	-0.044428058
4	0x3da39699	0.079877086
5	0xbd84a535	-0.06476823
6	0x3d4cd27c	0.05000542
7	0xbd524558	-0.051335663
8	0xbd9a3840	-0.0753026
9	0xbb1fd8cd	-0.0024390698
10	0xbd091fd4	-0.03347762
11	0xbd8e75cb	-0.06956061
12	0x3cb491fa	0.022042263
13	0xbd1b2014	-0.03787239
14	0xbd1df367	-0.038562205
15	0xbd4c5228	-0.049883038
16	0x3dac2c6f	0.084069125
17	0x3caa3fe0	0.020782411
18	0xbd2b952f	-0.04189032
19	0xbd1838a5	-0.037163395
20	0x3d73b6d6	0.059500538
21	0xbcd60f57	-0.026130361
22	0x3d83c78d	0.06434546
23	0x3b9601bb	0.004577843
24	0xbd9adcfb	-0.0756168
25	0xbd9c63b8	-0.07636207
26	0xbd8c38a9	-0.068467446
27	0x3c5d1375	0.013493408
28	0xbd80739e	-0.06272052
29	0x3db396c6	0.08768992
30	0xbc2b12d6	-0.010441503
31	0x3bd57af5	0.0065149018
32	0x3d0bbb9d	0.03411447
33	0xbd149bdc	-0.03628145
34	0x3bb487e1	0.005509362
35	0x3d8e08cb	0.06935271
36	0xbb4682b4	-0.0030290307
37	0xbd11a60f	-0.035558756
38	0x3c51394e	0.01277001
39	0x3cd4009c	0.025879197
40	0x3d5dc4c0	0.054142714
41	0x3db39acd	0.0876976
42	0x3d540a1d	0.051767457
43	0x3d992c35	0.07479135
44	0x3d8615e3	0.06547143
45	0x3c95e485	0.018297443
46	0x3d8cdcf6	0.068780825
47	0xbcf3433f	-0.029695151
48	0xbc938945	-0.018009791
49	0xbc55ca98	-0.01304879
50	0xbd6190e7	-0.05506983
51	0xbdab6af2	-0.083700076
52	0xbcbea49f	-0.023271857
53	0xbdb34d00	-0.08754921
54	0x3d3d0948	0.04615143
55	0xbcb8ffcd	-0.022582913
56	0xbd93569c	-0.07194254
57	0x3d8f29fc	0.0699043
58	0x3d89f88f	0.06736862
59	0xbc9fa2a4	-0.019486733
60	0xbd8025e3	-0.06257226
61	0x3d8f59bd	0.06999538
62	0xbd77c7c9	-0.060493264
63	0x3d35f66a	0.044424452
64	0xbad64fb5	-0.0016350659
65	0xbd8b5279	-0.0680284
66	0x3cf88c0d	0.030340219
67	0x3daf81be	0.08569668
68	0xbbe97df2	-0.0071256096
69	0xbcc60f83	-0.024177318
70	0x3d13b374	0.03605981
71	0xbd04a353	-0.03238232
72	0x3daee645	0.08540014
73	0xbc802419	-0.015642213
74	0xbd52d6e5	-0.05147447
75	0xbcb70ab5	-0.022343973
76	0xbd624a95	-0.05524691
77	0x3cc657ae	0.02421173
78	0xbd1ab260	-0.037767768
79	0x3d3b915e	0.04579293
80	0x3c35b0c7	0.01108951
81	0xbd9303e5	-0.07178477
82	0xbd8efe5b	-0.06982108
83	0xbda0d534	-0.07853165
84	0xbc73f95f	-0.014890998
85	0x3d1d51e2	0.038408168
86	0xbda801dc	-0.0820348
87	0x3d1974b8	0.037464827
88	0x3d150bbf	0.036388155
89	0xbd3ba0d6	-0.045807682
90	0x3d8ca861	0.06868053
91	0xbdadaac6	-0.08479838
92	0xbc67efe3	-0.014156315
93	0x3d96de85	0.07366661
94	0x3cbd4b60	0.02310723
95	0x3d633d90	0.055478632
96	0x3d6246ce	0.055243306
97	0xbd967482	-0.07346441
98	0xbcd3e163	-0.025864309
99	0xbb9d06ee	-0.004792086
100	0xbd5a0e5e	-0.053236358
101	0x3d9876b1	0.074445136
102	0x3d851725	0.06498555
103	0x3da6dfc0	0.08148146
104	0xbdab2be7	-0.08357983
105	0xbcfc1afc	-0.030774586
106	0x3da0a76e	0.07844435
107	0xbdaa173b	-0.08305212
108	0xbda5fede	-0.08105253
109	0x3d88ef52	0.06686272
110	0x3d98bd64	0.074579984
111	0x3b6f8a99	0.0036551117
112	0xbd922c83	-0.07137396
113	0xbcfd6a4e	-0.03093448
114	0x3d84c0d9	0.06482095
115	0x3d7e2d31	0.062054817
116	0xbdb48c7a	-0.08815856
117	0xbc85fbb2	-0.01635537
118	0x3d8e135e	0.06937288
119	0x3ca54f20	0.020179331
120	0x3c42c400	0.01188755
121	0x3d273d2f	0.040829834
122	0xbd8cdbab	-0.06877836
123	0x3d2b8e6a	0.041883864
124	0xbd97a3ac	-0.07404265
125	0xbc9933ad	-0.018701399
126	0x3bc7df0b	0.006099587
127	0x3c93bf35	0.01803551
128	0x3d126f5d	0.035750736
129	0xbdac45a1	-0.08411718
130	0xbd5c4221	-0.053774003
131	0xbc7d92ca	-0.015476892
132	0x3d86b4d0	0.06577456
133	0xbd301c1a	-0.04299555
134	0x3d12a5d6	0.035802685
135	0x3be24fff	0.006906509
136	0x3d8189dc	0.06325123
137	0x3d83e176	0.06439488
138	0xbdaa4b89	-0.083151884
139	0xbc3a8401	-0.011384011
140	0x3c20cc66	0.009814357
141	0x3c1ea45e	0.009682743
142	0xbd98c47b	-0.07459351
143	0x3d58042b	0.05273835
144	0xbd36bf8e	-0.044616275
145	0xbcfacc47	-0.030614985
146	0xbc189a25	-0.009314095
147	0xbd5cad86	-0.053876422
148	0xbd5bb855	-0.05364259
149	0xbd82dc0a	-0.06389625
150	0x3d56278f	0.05228382
151	0xbcdc6c2e	-0.026907053
152	0xbd8d8ea1	-0.0691197
153	0x3cc79406	0.024362575
154	0xbbf82525	-0.0075727873
155	0xbd92798c	-0.071520895
156	0xbda19e53	-0.07891526
157	0x3d09aeb3	0.03361387
158	0xbd419e0d	-0.04726987
159	0xbcfc74f6	-0.03081749
160	0x3d2954ea	0.041340746
161	0xbd3e9a17	-0.04653367
162	0x3d471a52	0.048609085
163	0xbdb02c57	-0.08602207
164	0x3cc4a283	0.024003273
165	0x3d98d603	0.074626945
166	0x3ca711af	0.020394174
167	0xbd5c7f0d	-0.053832103
168	0x3da4ddd1	0.080501206
169	0x3d7891e6	0.060686015
170	0xbd81bbf6	-0.06334679
171	0xbbadf8db	-0.005309207
172	0x3c6ae1e3	0.014336082
173	0x3baa03d6	0.0051884456
174	0x3d27a32c	0.040927097
175	0x3d63d274	0.055620626
176	0x3c007575	0.007840504
177	0xba4583ca	-0.0007534592
178	0xbcd8ff0f	-0.026488809
179	0xbce2c45c	-0.027681522
180	0xbc8f0c6b	-0.017461976
181	0x3d8f1910	0.06987202
182	0xbd95d8ae	-0.07316719
183	0xbd880160	-0.06640887
184	0x3d2c68c9	0.04209212
185	0x3b9f7ebb	0.0048674024
186	0xbba7849d	-0.0051122443
187	0x3c2976db	0.010343279
188	0xbd9ffd56	-0.07811992
189	0x3c862e35	0.016379455
190	0x3d1056f0	0.03523916
191	0x3d307069	0.043075953
192	0x3d101b38	0.035182208
193	0xbcea65f7	-0.028613074
194	0xbbef3b94	-0.0073008034
195	0x3d4acc8d	0.04951148
196	0xbca3ab5e	-0.019979175
197	0x3d13b56b	0.036061686
198	0xbce49839	-0.027904617
199	0xbc74262f	-0.014901682
200	0xbd0dfe29	-0.034666214
201	0xbd873ac1	-0.06603003
202	0xbd484caa	-0.048901238
203	0xbcca5bae	-0.02470192
204	0x3d826776	0.0636739
205	0xbd642d05	-0.055706996
206	0xbd9d1261	-0.07669521
207	0xbb85417b	-0.004066644
208	0x3cbc6ef5	0.023002127
209	0x3d713ae8	0.058894068
210	0xbd8f6e8a	-0.070035055
211	0xbc624d86	-0.013812428
212	0xbd3b69a3	-0.04575504
213	0x3d9722bd	0.07379673
214	0x3d4a964e	0.049459748
215	0xbc8a5700	-0.016887188
216	0xbd0eb3aa	-0.03483931
217	0xbdb3000e	-0.08740245
218	0xbb93ce58	-0.004510682
219	0x3d5babf5	0.053630788
220	0xbcaaa969	-0.020832734
221	0x3afe631f	0.0019408202
222	0xbd3a0fc6	-0.0454252
223	0x3d384589	0.04498819
224	0xbd3aa6c0	-0.04556918
225	0x3d0c0b02	0.034190185
226	0x3d9853b9	0.07437844
227	0xbda77519	-0.081766315
228	0xbd94b527	-0.072611146
229	0x3d0336cf	0.03203469
230	0x3d8bf351	0.06833518
231	0x3d947da7	0.07250529
232	0x3d1496b3	0.03627653
233	0x3db31920	0.087450266
234	0x3d3d8578	0.046269864
235	0x3c159575	0.009129872
236	0x3cbf3731	0.023341747
237	0xbd64f540	-0.05589795
238	0x3daeb9e6	0.08531551
239	0xbda929d8	-0.08259934
240	0xbd35b22e	-0.04435938
241	0x393986f3	0.00017693247
242	0xbcdeb4ea	-0.027185876
243	0x3d7c20b5	0.06155463
244	0x3d2fded9	0.042937133
245	0x3d1cfc5c	0.038326606
246	0x3d219592	0.039449282
247	0x3d2e290f	0.042519625
248	0x3da2cb41	0.07948924
249	0xbd172d12	-0.036908217
250	0xbd67d71e	-0.056601636
251	0x3d90df27	0.07073813
252	0xbc595d75	-0.013266911
253	0xbc782224	-0.0151448585
254	0x3c5047d4	0.012712438
255	0xbd58656b	-0.052831095

network.9.bias f4 [5]
0	0x3d06ea14	0.032938078
1	0xbca36dc9	-0.01994981
2	0xbc9f6661	-0.019457998
3	0x3da1b1eb	0.07895263
4	0xbd903fd8	-0.07043427
