Project Files/experiments/results/dqn_checkpoint_0.pt (torch, 871033 bytes, 16 tensors)

network.0.weight f4 [256, 33]
0.08012132 0.016399197 -0.048411477 -0.03137873 0.0022694862 0.021573668 0.13423222 -0.019306257
0.11155482 -0.15568954 0.0282853 -0.12402707 -0.08684966 0.031252645 0.0010254232 0.10465393
-0.16587083 -0.16377035 -0.0750315 -0.0021622 -0.13242984 0.02939014 0.0707636 0.015708001
0.105460964 -0.020147925 0.00021818311 0.0339073 0.06571418 0.1291966 -0.14100677 0.1273525
-0.09417933 -0.046531644 -0.07693774 -0.1717508 -0.08770801 -0.08355506 -0.00012691724 -0.11381374
-0.005508366 -0.12301526 0.1239898 0.08303093 -0.08381613 -0.10721259 -0.009110732 -0.1186113
-0.054842357 -0.10930469 0.11306954 -0.008756024 0.10689984 0.15276295 0.10005735 0.025645811
0.074509114 0.10425058 0.08090906 -0.04415315 0.14469428 -0.11650146 0.12955473 0.049776625
-0.0884669 0.0253313 -0.10872474 0.13900298 -0.097165935 0.060947727 0.023742322 0.03146263
0.048238553 -0.13969918 -0.10697833 -0.051680654 -0.17269307 -0.16805674 -0.016115356 -0.08812487
0.043967985 -0.14542328 -0.11771196 0.028739367 -0.054446086 -0.09965761 0.03409604 -0.054925554
-0.11385014 -0.07633688 -0.10778613 0.13164686 0.00517692 -0.12267748 0.080213584 0.11791087
-7.700946e-05 -0.11980556 0.105126366 0.12261915 0.16291147 0.12837023 0.081596375 -0.010989132
0.061510038 -0.14527473 0.059803795 -0.12426215 0.1678986 -0.006100536 0.15207557 0.070287086
0.017942458 0.09940959 -0.14361933 -0.029336413 -0.124801666 -0.12709866 -0.111629 -0.12359637
-0.013979448 -0.059413746 0.1666556 -0.0641013 -0.07503023 0.15163645 0.1644332 -0.006244241
-0.070419766 -0.06652837 -0.08243997 -0.16474682 0.14419374 -0.107424095 0.112071514 -0.023595754
-0.10645619 -0.036606617 0.033032037 -0.05841146 0.028437203 -0.11343072 -0.15597653 -0.028535211
0.01527236 0.08236848 0.109203115 0.12338495 0.080049165 0.13482302 -0.1401113 -0.01865588
0.036326032 0.12691285 0.12869939 -0.08922153 -0.13865843 0.03830176 -0.061026584 -0.12254986
0.16267581 0.09843837 -0.0057148244 0.008058913 -0.09555366 0.07873135 0.16038783 0.05782398
0.10181464 -0.084710844 0.10342695 -0.059025772 -0.048505563 0.15991908 0.073844336 -0.012744807
0.14564016 0.13553338 0.13316573 0.097553164 0.1334709 0.007071963 -0.095197 -0.17251244
0.011566423 -0.036433715 -0.14886759 -0.1027834 -0.00021471757 -0.05984036 0.0897782 -0.09169538
0.079693176 -0.12972176 -0.01295114 0.085097715 -0.1624538 -0.03072416 0.16569985 -0.10875753
-0.12806001 -0.11468639 0.15450656 -0.09830441 -0.03437876 -0.03291973 0.10981971 0.115886375
0.13989195 -0.15705903 0.010244396 -0.09913834 -0.014921782 -0.15468545 -0.10518208 -0.16738299
0.060796347 -0.042633608 -0.026111167 -0.14060827 0.038462356 0.05937214 -0.13436009 0.04865869
-0.1723855 0.012851159 0.115338825 0.050674696 -0.17031372 -0.029836632 0.0052130283 0.10283216
-0.06653595 -0.040824126 -0.08236034 -0.11244635 -0.14730051 -0.023989122 -0.0421342 -0.038068242
0.09228502 -0.06697412 0.11034713 0.13125171 -0.006501105 -0.16417795 -0.082974866 0.16967507
-0.13077964 -0.1315764 0.16731322 0.1356958 -0.121441595 0.029326245 0.12766169 0.01985543
00000000: a616 a43d 9c57 863c 1d4b 46bd fc86 00bd
00000010: a9bb 143b 43bb b03c 2c74 093e 2828 9ebc
00000020: da76 e43d 146d 1fbe 93b6 e73c e801 febd
00000030: 3cde b1bd c602 003d 7e67 863a cd54 d63d
00000040: 0bda 29be 6ab3 27be 1daa 99bd b2b3 0dbb
00000050: b09b 07be 97c3 f03c 82ec 903d 11ae 803c
00000060: ebfb d73d 430d a5bc 15c8 6439 62e2 0a3d
00000070: 2895 863d 1d4c 043e 1464 10be b268 023e
00000080: 18e1 c0bd f797 3ebd 8991 9dbd 71df 2fbe
00000090: 42a0 b3bd ea1e abbd 1615 05b9 2e17 e9bd
000000a0: 867f b4bb 6def fbbd 5dee fd3d 1f0c aa3d
000000b0: cba7 abbd 4692 dbbd 2e45 15bc 7bea f2bd
000000c0: 61a2 60bd 23db dfbd 0191 e73d 6d75 0fbc
000000d0: 4eee da3d e46d 1c3e deea cc3d 2a17 d23c
000000e0: 3c98 983d 5481 d53d a6b3 a53d efd9 34bd
000000f0: bd2a 143e 5198 eebd ffa9 043e 93e2 4b3d
00000100: 222e b5bd 9683 cf3c 14ab debd cc56 0e3e
00000110: effe c6bd 53a4 793d 427f c23c f5de 003d
00000120: ca95 453d 4d0d 0fbe 7417 dbbd 18af 53bd
00000130: 74d6 30be 1117 2cbe 5a04 84bc d07a b4bd
00000140: c617 343d d7e9 14be f812 f1bd d26e eb3c
00000150: dc02 5fbd 4a19 ccbd 4aa8 0b3d 9ef9 60bd
00000160: 432a e9bd 8356 9cbd f9be dcbd 6fce 063e
00000170: 27a3 a93b 553e fbbd 0547 a43d 417b f13d
00000180: 2480 a1b8 9e5c f5bd 7e4c d73d c01f fb3d
00000190: 44d2 263e 7c73 033e 001c a73d c30b 34bc
000001a0: f3f1 7b3d e6c2 14be d3f4 743d 277d febd
000001b0: 9ced 2b3e 01e7 c7bb b3b9 1b3e adf2 8f3d
000001c0: 10fc 923c 4197 cb3d f210 13be eb52 f0bc
000001d0: 0498 ffbd 2726 02be bf9d e4bd 1820 fdbd
000001e0: 0e0a 65bc d45b 73bd c4a7 2a3e 8b47 83bd
000001f0: 73a9 99bd 9646 1b3e 2d61 283e 7d9c ccbb
00000200: 3d38 90bd 0740 88bd 49d6 a8bd 64b3 28be
00000210: 86a7 133e 2a01 dcbd c085 e53d e24b c1bc
00000220: b405 dabd d2f0 15bd 9a4c 073d db40 6fbd
00000230: 23f5 e83c 5e4e e8bd 50b8 1fbe adc2 e9bc
00000240: ec38 7a3c ceb0 a83d e2a5 df3d 40b1 fc3d
00000250: d1f0 a33d 0c0f 0a3e 5679 0fbe 37d4 98bc
00000260: 9bca 143d 71f5 013e c6c9 033e c7b9 b6bd
00000270: 7afc 0dbe 4ee2 1c3d 03f7 79bd 6cfb fabd
00000280: 7d94 263e 0e9a c93d 6c43 bbbb 8809 043c
00000290: a3b1 c3bd e73d a13d b53c 243e d6d8 6c3d
000002a0: 3284 d03d e17c adbd 82d1 d33d 02c5 71bd
000002b0: c5ad 46bd d4c1 233e b33b 973d 98cf 50bc
000002c0: b222 153e 43c9 0a3e 995c 083e f4c9 c73d
000002d0: 98ac 083e edbb e73b a5f6 c2bd 1aa7 30be
000002e0: 1881 3d3c 853b 15bd bf70 18be 1a80 d2bd
000002f0: cf25 61b9 2a1b 75bd a2dd b73d caca bbbd
00000300: 2d36 a33d c8d5 04be 0531 54bc b647 ae3d
00000310: 4a5a 26be 3cb1 fbbc 39ad 293e 45bc debd
00000320: 2a22 03be b3e0 eabd f836 1e3e d353 c9bd
00000330: bed0 0cbd d7d6 06bd 28e9 e03d d655 ed3d
00000340: d63f 0f3e 15d4 20be 1cd8 273c 0b09 cbbd
00000350: 7d7a 74bc dd65 1ebe b469 d7bd 7266 2bbe
00000360: 9705 793d 94a0 2ebd 16e7 d5bc 9dfb 0fbe
00000370: b48a 1d3d 3330 733d b195 09be 564e 473d
00000380: d385 30be ab8d 523c c336 ec3d 4590 4f3d
00000390: b866 2ebe f46b f4bc 0dd2 aa3b ab99 d23d
000003a0: 0044 88bd 3337 27bd 8aac a8bd 464a e6bd
000003b0: f2d5 16be d684 c4bc e994 2cbd 72ed 1bbd
000003c0: eeff bc3d ba29 89bd adfd e13d d966 063e
000003d0: 3907 d5bb 441e 28be baee a9bd 4dbf 2d3e
000003e0: 19eb 05be f7bb 06be 2854 2b3e d7f3 0a3e
000003f0: 5fb6 f8bd 983d f03c bfb9 023e dba7 a23c

network.0.bias f4 [256]
-0.09920871 -0.10631805 -0.08325991 0.037875023 0.0048869983 -0.15199107 -0.16217184 -0.09891377
0.16606446 -0.1192728 -0.08181827 -0.06228841 0.09313011 0.02390379 -0.16848639 0.06703606
-0.04128749 0.08639914 -0.022857077 0.013844604 0.11253226 0.13372704 0.033343997 -0.05269456
-0.032610342 0.07402647 0.13461916 -0.10394032 0.12164837 0.06944021 0.1520991 0.07489638
0.05664321 0.03137788 0.09542539 0.04936589 0.058498535 0.1261635 -0.06882523 -0.05780769
-0.16926105 0.09366827 0.12847108 0.1471141 0.15416043 0.15096903 -0.037127547 -0.042860467
0.17012396 0.121571176 0.0016319116 -0.028014636 -0.10092909 -0.08730395 -0.10488394 -0.01977674
0.10079725 0.13383289 -0.05775907 -0.15213019 -0.0009256284 0.08077666 0.15328 -0.16579928
-0.052707635 -0.11270716 -0.10656165 -0.050300397 -0.08170947 -0.07457037 -0.1733999 -0.14723203
-0.081674814 0.043286726 0.14060764 0.1500434 -0.16330053 -0.038554825 0.1469009 0.08604472
-0.12302601 0.103469655 -0.0013938277 0.047872182 0.08031964 0.10064273 -0.13274553 -0.07376064
-0.034617983 0.06145409 0.05522996 0.025220195 0.021063136 0.011332095 0.084338956 -0.14956358
0.16230673 -0.0018705144 0.11796231 -0.03034754 -0.13640167 0.16775054 -0.0689022 0.052413624
-0.011075169 0.039108418 -0.1658446 0.15170392 -0.082497805 -0.09935304 0.13570634 -0.09530536
-0.047038794 0.089990154 -0.047797706 -0.04485599 -0.10797783 -0.06090994 -0.09831255 -0.050020978
0.0700236 -0.16678683 0.04298485 0.07649945 -0.16227792 -0.0845336 -0.056179408 -0.15345126
-0.08625201 -0.13042778 -0.03311054 0.13719933 -0.022428887 0.056577075 -0.054465342 -0.15012516
-0.028694605 0.15947764 -0.15430334 -0.057405688 0.05484487 -0.12828088 0.12182837 -0.122144766
0.119229 -0.09171244 0.103716366 0.15145084 0.032246586 0.113740385 0.13027243 0.017535767
0.07862569 -0.14597768 0.1458869 -0.07931375 0.04398259 -0.036298912 0.014233428 0.019495098
0.13305628 0.066494115 0.14378941 -0.059891738 0.1568002 -0.13330176 0.08516655 -0.051299486
-0.15117617 -0.08187754 -0.12487272 0.056665663 -0.108113445 0.08500778 -0.02296816 -0.08012923
-0.1176169 -0.13679466 0.15590408 -0.1014436 0.03855912 0.070762254 0.12194742 -0.11191851
-0.014362026 0.08186662 0.059120025 0.027256306 -0.11886074 0.13637927 -0.15431988 -0.043059
0.016599348 0.018830858 0.08072762 0.06332705 0.016886923 0.023395458 -0.014114625 0.13228817
0.021063842 0.072168946 -0.17328013 0.09122009 -0.080999136 -0.13593467 0.16555344 -0.012776474
0.022452772 -0.12652059 0.10969729 -0.023288421 0.154079 0.046281464 -0.12884094 -0.064921886
0.04436241 -0.018903593 0.13881901 -0.0014913398 -0.030811049 0.02114992 0.08267718 0.06751151
-0.16202353 -0.09368424 0.15907937 0.10878289 -0.06720417 -0.026233498 -0.015196389 -0.12638728
0.075383924 -0.009845404 -0.027892781 0.015638545 0.17241609 -0.07005379 0.030505667 0.08771608
0.008348191 -0.1258832 0.08580709 -0.16006194 0.14816724 -0.10912289 -0.11743806 0.046383332
0.021464452 -0.10842648 -0.0529447 -0.13563678 -0.051265165 0.032422893 -0.0074724704 0.12458647
00000000: f02d cbbd 47bd d9bd 2c84 aabd d722 1b3d
00000010: 1d23 a03b 8ca3 1bbe 6010 26be 4d93 cabd
00000020: cd0c 2a3e 4c45 f4bd 5690 a7bd 2222 7fbd
00000030: 00bb be3d e2d1 c33c b287 2cbe 344a 893d
00000040: 121d 29bd 08f2 b03d c43e bbbc 7ad4 623c
00000050: 5077 e63d beef 083e b793 083d 40d6 57bd
00000060: 6c92 05bd 319b 973d 9bd9 093e aade d4bd
00000070: c822 f93d ab36 8e3d debf 1b3e 4663 993d
00000080: b602 683d 1886 003d 636e c33d e333 4a3d
00000090: 299c 6f3d 0131 013e 3ef4 8cbd c2c7 6cbd
000000a0: c552 2dbe 26d5 bf3d ec8d 033e 14a5 163e
000000b0: 3bdc 1d3e a097 1a3e 0e13 18bd 758e 2fbd
000000c0: fa34 2e3e 4ffa f83d dee5 d53a f37e e5bc
000000d0: e9b3 cebd 6acc b2bd 64cd d6bd d402 a2bc
000000e0: ca6e ce3d 7d0b 093e c694 6cbd 04c8 1bbe
000000f0: dfa5 72ba 3c6e a53d 6ff5 1c3e 49c7 29be
00000100: f6e3 57bd 03d3 e6bd ff3c dabd ca07 4ebd
00000110: 4b57 a7bd 5ab8 98bd be8f 31be fec3 16be
00000120: 2045 a7bd 6c4d 313d 73fb 0f3e faa4 193e
00000130: 4138 27be aaeb 1dbd 316d 163e 3738 b03d
00000140: 10f5 fbbd e6e7 d33d 19b1 b6ba 9f15 443d
00000150: a07e a43d c71d ce3d 72ee 07be d20f 97bd
00000160: 96cb 0dbd 49b7 7b3d cf38 623d 959a ce3c
00000170: 998c ac3c 40aa 393c e7b9 ac3d 3227 19be
00000180: bc33 263e 0c2c f5ba 3996 f13d 679b f8bc
00000190: e1ac 0bbe ccc6 2b3e 991c 8dbd abaf 563d
000001a0: a074 35bc 2630 203d 2bd3 29be 4658 1b3e
000001b0: 9cf4 a8bd 9b79 cbbd 9af6 0a3e 752f c3bd
000001c0: c0ab 40bd c24c b83d 87c7 43bd eaba 37bd
000001d0: 7b23 ddbd b47c 79bd 1758 c9bd cce2 4cbd
000001e0: 8868 8f3d 2bca 2abe e210 303d beab 9c3d
000001f0: 2f2c 26be f41f adbd 611c 66bd 5422 1dbe
00000200: e5a4 b0bd dc8e 05be eb9e 07bd fb7d 0c3e
00000210: c9bc b7bc 5dbd 673d 0d17 5fbd 69ba 19be
00000220: f310 ebbc 1b4e 233e b201 1ebe 3a22 6bbd
00000230: 04a5 603d 105c 03be 2781 f93d 0927 fabd
00000240: 552e f43d bbd3 bbbd 3f69 d43d ee15 1b3e
00000250: ff14 043d b8f0 e83d 2366 053e 2ba7 8f3c
00000260: 8106 a13d 2c7b 15be 6063 153e 3f6f a2bd
00000270: 1727 343d 2bae 14bd 5333 693c 2fb4 9f3c
00000280: e83f 083e 112e 883d 883d 133e 0a51 75bd
00000290: 3b90 203e 4280 08be cd6b ae3d 691f 52bd
000002a0: edcd 1abe 69af a7bd 45bd ffbd 411a 683d
000002b0: 956a ddbd 8f18 ae3d b927 bcbc cb1a a4bd
000002c0: 21e1 f0bd e613 0cbe 52a5 1f3e aac1 cfbd
000002d0: 2bf0 1d3d cdeb 903d 92bf f93d 8835 e5bd
000002e0: b44e 6bbc b0a9 a73d d727 723d 9e48 df3c
000002f0: 426d f3bd 02a7 0b3e 0806 1ebe a25e 30bd
00000300: 5bfb 873c 2c43 9a3c 8654 a53d 9db1 813d
00000310: 7256 8a3c d5a7 bf3c 0741 67bc 8d76 073e
00000320: 148e ac3c 50cd 933d 5970 31be 99d1 ba3d
00000330: e0e2 a5bd 7532 0bbe d786 293e 6a54 51bc
00000340: e0ee b73c 9d8e 01be f9a8 e03d 5cc7 bebc
00000350: e3c6 1d3e a291 3d3d e1ee 03be c4f5 84bd
00000360: 5cb5 353d b5db 9abc 9226 0e3e 0f79 c3ba
00000370: 7467 fcbc 9942 ad3c a752 a93d 7943 8a3d
00000380: 7fe9 25be 86dd bfbd b4e5 223e 90c9 de3d
00000390: 57a2 89bd a2e7 d6bc 46fa 78bc ab6b 01be
000003a0: e362 9a3d 9e4e 21bc 677f e4bc 681c 803c
000003b0: d88d 303e 5d78 8fbd 05e7 f93c 7da4 b33d
000003c0: dac6 083c 87e7 00be a1bb af3d 47e7 23be
000003d0: 27b9 173e d27b dfbd 5e83 f0bd 73fc 3d3d
000003e0: 38d6 af3c b40e debd 8bdc 58bd 5ee4 0abe
000003f0: 6cfb 51bd decd 043d a0db f4bb 3127 ff3d

network.3.weight f4 [256, 256]
0.037420392 0.04289951 -0.040483914 0.03703548 0.025820427 0.05849602 0.044591315 -0.053208947
-0.014222972 -0.023959994 -0.0417201 -0.025205486 -0.04601954 -0.040787697 0.009379663 0.046522386
-0.027270854 0.042200476 -0.015729591 -0.03331659 -0.047547117 -0.009636417 -0.050855927 0.03111922
0.039617293 0.057155482 0.019029193 -0.05962506 0.023113169 -0.021347426 -0.046829544 0.059017025
-0.053342372 0.05987087 -0.048073366 -0.056627385 0.012108922 -0.039382674 -0.014713682 -0.03317544
0.059625752 0.016165674 -0.045824558 0.013600618 0.045852512 -0.061867446 0.039904848 0.03293948
-0.03212484 0.022594288 -0.036211804 0.015410565 0.023335047 0.03453801 0.013514787 -0.028035797
-0.053296 0.060850613 -0.002329506 0.0018680319 -0.06144909 -0.0153056085 0.012902714 -0.01843857
0.011841364 0.06228882 -0.06081201 0.03405536 0.043068983 -0.041481517 -0.018449664 -0.060355976
-0.027463771 -0.056226447 -0.016385175 -0.035339482 -0.01352115 0.010449186 -0.0073018223 0.05432774
0.05520057 -0.060202546 -0.04218469 0.029321104 -0.058361553 0.021662258 -0.05250088 -0.02038955
-0.052081503 0.02502264 -0.056623846 -0.04721322 -0.03820403 -0.02721025 0.015658125 -0.015049577
0.04015386 -0.0031764507 -0.0035151243 0.031843103 0.037119284 -0.052748606 0.055198193 0.042425327
-0.00061011314 0.055299364 -0.044944845 0.020808801 -0.009865008 0.024857156 0.030422047 -0.051004328
-0.05970639 -0.027514957 -0.00257425 -0.03490687 0.02898775 -0.04126396 -0.04240915 0.01879403
-0.04859344 -0.021590687 0.023467429 -0.054085612 0.009994678 -0.0048032627 -0.054777674 0.051489808
-0.06113168 0.045911096 -0.040650167 -0.04847724 -0.03597053 0.03565354 0.029391691 -0.047070168
0.0032655671 0.040107958 -0.015986092 -0.015866816 0.010406308 -0.03876344 -0.027785547 0.048776805
-0.04340051 0.008457907 -0.025082782 0.012818009 -0.0020279735 0.034565873 0.010841139 0.004323758
0.051623233 -0.008598506 -0.031290524 0.0027039126 -0.033058375 -0.038670458 0.015822217 -0.02017171
0.0070913807 0.011083834 0.002550587 -0.0074786246 -0.037180804 0.045412757 -0.052402146 -0.011673041
-0.022869073 0.015045419 0.013575457 0.03156384 -0.060986124 0.04518462 -0.027281359 0.05406913
-0.051173948 -0.00075846165 0.0147455335 0.05989358 0.010215901 -0.05016487 -0.040459603 -0.017693155
0.055509552 0.0041879565 0.0039709955 0.007693991 -0.02051907 -0.059610352 -0.046724968 -0.045757093
-0.018370837 0.05444485 0.023329295 0.0019505844 0.05370564 0.0129308775 0.046533853 0.061039746
-0.0021482036 0.018759541 -0.006064199 0.0121307 0.04359421 0.047952235 -0.006678447 0.0062583983
0.025890864 -0.020015292 -0.0607092 0.02482003 -0.05859665 0.021173663 -0.030816019 0.018335871
-0.012168944 0.0010722876 -0.032156274 -0.029025175 -0.035424687 -0.0028541014 -0.027645007 0.05869761
-0.052631244 0.054825716 -0.06118904 -0.053679034 -0.043238066 0.009623073 -0.038847283 0.04149683
0.049550995 -0.041442744 0.030408852 0.02236326 0.015191659 -0.03503962 -0.03975308 -0.02749475
0.007671207 0.0025334954 -0.053717874 -0.014852621 -0.046288088 -0.052831948 0.015174769 0.059718095
0.008655243 0.027781598 0.049609147 0.040486112 -0.060661495 0.03774119 -0.0027219355 0.0044548213
00000000: 2046 193d 66b7 2f3d 76d2 25bd 84b2 173d
00000010: 5c85 d33c 8699 6f3d 62a5 363d a0f1 59bd
00000020: 7807 69bc c047 c4bc b2e2 2abd bc7b cebc
00000030: fc7e 3cbd 0011 27bd 28ad 193c 428e 3e3d
00000040: 2067 dfbc 68da 2c3d 58db 80bc fa76 08bd
00000050: c4c0 42bd 10e2 1dbc 4e4e 50bd bced fe3c
00000060: be45 223d de1b 6a3d 1ce3 9b3c 6839 74bd
00000070: d457 bd3c cce0 aebc 56d0 3fbd d6bb 713d
00000080: 887d 5abd 283b 753d 94e8 44bd 1ef2 67bd
00000090: 8064 463c ba4f 21bd a811 71bc f8e2 07bd
000000a0: 223a 743d e06d 843c 88b2 3bbd 20d5 5e3c
000000b0: d8cf 3b3d b868 7dbd 4473 233d 8ceb 063d
000000c0: 5695 03bd a817 b93c d452 14bd 987c 7c3c
000000d0: 2429 bf3c ba77 0d3d 206d 5d3c 54ab e5bc
000000e0: e84c 5abd 7e3e 793d a0aa 18bb c0d8 f43a
000000f0: 0ab2 7bbd 60c4 7abc e865 533c 7c0c 97bc
00000100: 4802 423c 9022 7f3d 0416 79bd a27d 0b3d
00000110: 1a69 303d 86e8 29bd c023 97bc d437 77bd
00000120: b4fb e0bc b44d 66bd 343a 86bc 22c0 10bd
00000130: d087 5dbc 1033 2b3c 2044 efbb c486 5e3d
00000140: fe19 623d f296 76bd dac9 2cbd d032 f03c
00000150: 860c 6fbd 0c75 b13c 2a0b 57bd fc07 a7bc
00000160: 6a53 55bd 48fc cc3c 68ee 67bd a662 41bd
00000170: d47b 1cbd 08e8 debc 7845 803c 8092 76bc
00000180: 6078 243d 002c 50bb 005e 66bb ea6d 023d
00000190: 640a 183d ec0e 58bd 8017 623d 2ec6 2d3d
000001a0: 00f0 1fba 9681 623d 1618 38bd 3877 aa3c
000001b0: d8a0 21bc 3ca1 cb3c a837 f93c eae9 50bd
000001c0: b08e 74bd 0c67 e1bc c0b4 28bb 82fa 0ebd
000001d0: b877 ed3c 6604 29bd 38b5 2dbd f0f5 993c
000001e0: ea09 47bd f4de b0bc c43e c03c e088 5dbd
000001f0: b8c0 233c b064 9dbb 8e5e 60bd fae6 523d
00000200: 3665 7abd 460d 3c3d ca80 26bd 1290 46bd
00000210: d655 13bd 7209 123d d8c6 f03c a6cc 40bd
00000220: 2003 563b 3e48 243d 44f5 82bc 20fb 81bc
00000230: 387f 2a3c 6ac6 1ebd 849e e3bc 30ca 473d
00000240: bcc4 31bd 0893 0a3c 687a cdbc a002 523c
00000250: c0e7 04bb f294 0d3d 089f 313c 50ae 8d3b
00000260: e272 533d c0e0 0cbc 7e2a 00bd 2034 313b
00000270: 3868 07bd ea64 1ebd 989d 813c 243f a5bc
00000280: d05e e83b f898 353c c027 273b 400f f5bb
00000290: e64a 18bd ba02 3a3d a2a3 56bd 4840 3fbc
000002a0: ec57 bbbc 1081 763c 986b 5e3c 1649 013d
000002b0: 96cc 79bd 8213 393d 287d dfbc 9877 5d3d
000002c0: c69b 51bd 80d3 46ba 4097 713c f852 753d
000002d0: 9860 273c ae79 4dbd f8b8 25bd 3cf1 90bc
000002e0: fc5d 633d 203b 893b 201f 823b e01d fc3b
000002f0: 9c17 a8bc fc29 74bd ae62 3fbd ca6b 3bbd
00000300: 707e 96bc 9001 5f3d 141d bf3c c0aa ff3a
00000310: 72fa 5b3d 08dc 533c 489a 3e3d d004 7a3d
00000320: e0c8 0cbb 9cad 993c 30b6 c6bb d8bf 463c
00000330: d88f 323d 9069 443d e0d6 dabb 4013 cd3b
00000340: 1419 d43c 1cf7 a3bc 36aa 78bd 6053 cb3c
00000350: 0a03 70bd 6474 ad3c e071 fcbc 1c35 963c
00000360: 4060 47bc 008c 8c3a 4cb6 03bd 34c6 edbc
00000370: 7a19 11bd e00b 3bbb c877 e2bc e86c 703d
00000380: dc93 57bd ee90 603d 5ca1 7abd 8cde 5bbd
00000390: 661a 31bd 18aa 1d3c 541e 1fbd 94f8 293d
000003a0: fcf5 4a3d debf 29bd fc1b f93c 2833 b73c
000003b0: 70e6 783c b485 0fbd 20d4 22bd ac3c e1bc
000003c0: c05e fb3b 0009 263b 4607 5cbd 6858 73bc
000003d0: 9498 3dbd 5066 58bd 989f 783c f69a 743d
000003e0: b8ce 0d3c 3c96 e33c f632 4b3d c4d4 253d
000003f0: 3078 78bd 8296 1a3d 8062 32bb c0f9 913b

network.3.bias f4 [256]
-0.026615374 -0.062425077 -0.03364805 0.020305246 0.00048751384 0.0144172385 0.0031726658 0.012231179
0.03234963 0.06057582 -0.04500208 0.04084649 -0.050088197 -0.02236776 0.01599855 -0.03203377
0.004402809 0.058616504 0.020107165 -0.0053556487 -0.05357364 0.050073028 0.006723039 0.059011154
-0.047102533 0.054073423 -0.058481902 -0.040337592 -0.027238317 0.04591106 -0.023194559 0.059582233
0.055066206 0.025928892 -0.010106936 0.04174169 -0.0066442415 -0.006804168 0.010158949 -0.05728341
-0.015013687 -0.05327034 -0.04732772 0.056152016 0.042797692 0.046788283 -0.019144401 0.039121896
0.05032564 -0.035203002 -0.06069102 -0.027373597 0.023126915 0.049134538 -0.030141488 -0.018435478
-0.03724557 -0.0025585815 0.040927894 -0.013417937 -0.06085615 -0.026183806 -0.0013256818 -0.022986934
0.051936798 -0.033083074 -0.0115152225 0.044393703 -0.02160713 -0.05672364 -0.024118923 -0.06120017
-0.012495272 -0.03392514 -0.035620786 0.01661668 -0.04563143 -0.0077371 -0.01986608 -0.0048649535
0.0092896 -0.0127979815 -0.016102068 0.027109325 -0.0040114596 -0.022290088 0.034583256 -0.020998865
0.032530412 -0.032125622 -0.028618515 -0.031223066 -0.05752161 -0.041017994 -0.037795454 0.008966669
0.059024855 -0.055048525 0.023978136 -0.037262276 0.052279964 -0.04350207 0.0010748208 -0.060975686
-0.028671287 -0.0033385456 0.008372173 0.042352125 -0.034800567 -0.010265037 0.008445755 -0.0004466772
0.022271387 -0.05532428 0.0337748 -0.062106073 -0.046148725 -0.0067822635 -0.021612436 0.0044632927
-0.046788678 -0.057425477 0.0011340529 -0.008853175 -0.035993315 0.043621264 -0.023298383 0.059097327
-0.06069158 0.049129352 -0.023208722 0.05526802 0.026697502 0.049647152 -0.037528276 0.00528343
0.04016213 0.033330083 -0.021463767 -0.054600373 0.010727949 0.01049199 0.00051098317 -0.014808357
0.050374344 0.052902713 -0.00064335763 0.060578644 0.011778675 -0.032818325 0.017164432 -0.034914806
0.024588704 -0.02377773 -4.9062073e-05 0.021309815 0.02826932 -0.045059957 -0.06127377 -0.007410541
-0.011744238 0.05915752 -0.05723855 -0.0057400465 0.001954168 -0.028510824 -0.050693616 0.03252141
-0.01858551 0.04464975 0.032362632 -0.0063951686 -0.049386524 0.027905509 -0.041684985 0.05545923
0.047187023 -0.06224843 0.04312466 0.012429863 -0.031613193 -0.013281964 -0.022085115 0.0032161474
0.060460493 -0.040778287 -0.0073121116 0.055110306 0.027738735 -0.007437378 -0.016448878 0.042407006
0.029725403 0.04071763 0.018931195 -0.040016398 0.0054259077 -0.01636941 0.042444035 0.049795695
-0.039579853 0.048911758 -0.030883998 -0.036426425 0.055208288 -0.020542368 0.036807254 -0.04705222
-0.005077675 0.0022648424 -0.0066240504 -0.01683706 0.026993632 0.0014438853 0.053258516 -0.017531104
-0.057766415 0.022461198 -0.05943179 -0.0031747967 0.0048731044 -0.012383245 -0.04614874 0.038670838
0.0023018196 0.033260003 -0.02749408 -0.05806695 -0.061477937 0.061137438 -0.026033625 0.027570523
-0.039901398 0.05750005 -0.04454954 -0.037651762 -0.010037765 0.05722063 -0.02216582 0.020060048
-0.023277283 0.00096478313 -0.018584624 -0.031995445 0.018640362 -0.03749486 -0.028967671 0.05668345
0.019480325 0.055232443 -0.05532729 0.025549158 -0.050428577 0.043842122 -0.008431494 0.052964292
00000000: 7c08 dabc 70b1 7fbd 8ad2 09bd 3057 a63c
00000010: 0099 ff39 4836 6c3c 80ec 4f3b 4865 483c
00000020: 0c81 043d 5a1e 783d 1a54 38bd a64e 273d
00000030: 4829 4dbd 983c b7bc 640f 833c d835 03bd
00000040: 7045 903b dc17 703d c8b7 a43c 707e afbb
00000050: 0870 5bbd 6019 4d3d f04c dc3b aeb5 713d
00000060: 96ee 40bd 187c 5d3d b88a 6fbd 0839 25bd
00000070: e422 dfbc 3c0d 3c3d 8402 bebc 800c 743d
00000080: 1a8d 613d d468 d43c 9097 25bc 56f9 2a3d
00000090: f0b7 d9bb 80f5 debb b871 263c 02a2 6abd
000000a0: f8fb 75bc 0032 5abd b6da 41bd a8ff 653d
000000b0: a24c 2f3d 12a5 3f3d b8d4 9cbc 483e 203d
000000c0: 4222 4e3d 0631 10bd 2697 78bd 983e e0bc
000000d0: a874 bd3c 4c41 493d 48eb f6bc 0006 97bc
000000e0: d08e 18bd e0ad 27bb 02a4 273d e8d6 5bbc
000000f0: 4c44 79bd 6c7f d6bc 80c2 adba 184f bcbc
00000100: aebb 543d 1e82 07bd 58aa 3cbc 2cd6 353d
00000110: 7001 b1bc 0c57 68bd 0c95 c5bc 08ad 7abd
00000120: f8b8 4cbc 16f5 0abd 1ae7 11bd b41f 883c
00000130: 06e8 3abd 8087 fdbb 30be a2bc 306a 9fbb
00000140: 6833 183c a0ae 51bc 7ce8 83bc 6014 de3c
00000150: 9072 83bb b499 b6bc 2ca7 0d3d d005 acbc
00000160: 9c3e 053d 2896 03bd 6071 eabc 84c7 ffbc
00000170: c89b 6bbd 7c02 28bd 68cf 1abd f0e8 123c
00000180: 0cc4 713d 907a 61bd cc6d c43c 54a0 18bd
00000190: 8423 563d 3a2f 32bd 00e1 8c3a a4c1 79bd
000001a0: 0ce0 eabc 80cb 5abb 702b 093c 6c79 2d3d
000001b0: 0a8b 0ebd b02e 28bc 1060 0a3c 0030 eab9
000001c0: 7c72 b63c b69b 62bd 7257 0a3d f062 7ebd
000001d0: 7206 3dbd c03d debb 900c b1bc d040 923b
000001e0: 7ca5 3fbd fa36 6bbd 80a4 943a e80c 11bc
000001f0: ba6d 13bd 36ac 323d 40dc bebc 0a10 723d
00000200: bc97 78bd dc3b 493d 3820 bebc b860 623d
00000210: b8b4 da3c d05a 4b3d 40b7 19bd a020 ad3b
00000220: 0c81 243d 2085 083d c8d4 afbc a4a4 5fbd
00000230: 48c4 2f3c 98e6 2b3c 80f3 053a c09e 72bc
00000240: 5455 4e3d 84b0 583d 00a7 28ba 5021 783d
00000250: 58fb 403c 826c 06bd 6c9c 8c3c d402 0fbd
00000260: 406e c93c 84c9 c2bc 00c8 4db8 ec91 ae3c
00000270: 1095 e73c ca90 38bd 34fa 7abd 20d4 f2bb
00000280: e86a 40bc 284f 723d f872 6abd 0017 bcbb
00000290: 8011 003b 888f e9bc 1ca4 4fbd 2c35 053d
000002a0: a440 98bc a8e2 363d ae8e 043d 908e d1bb
000002b0: 8649 4abd 189a e43c e0bd 2abd 3829 633d
000002c0: 2e47 413d 36f8 7ebd 7ca3 303d a0a6 4b3c
000002d0: d67c 01bd 989c 59bc d8eb b4bc 00c6 523b
000002e0: 6ca5 773d 2207 27bd 709a efbb 58bb 613d
000002f0: 583c e33c 40b5 f3bb ccbf 86bc f8b2 2d3d
00000300: b082 f33c 88c7 263d 9815 9b3c 3ce8 23bd
00000310: d0cb b13b 2419 86bc ccd9 2d3d 92f6 4b3d
00000320: 7c1e 22bd b257 483d 7000 fdbc e033 15bd
00000330: 1622 623d 7848 a8bc 34c3 163d d4b9 40bd
00000340: a062 a6bb c06d 143b 900e d9bb e0ed 89bc
00000350: c021 dd3c c040 bd3a 9a25 5a3d 649d 8fbc
00000360: 7a9c 6cbd 8c00 b83c c06e 73bd 4010 50bb
00000370: 90ae 9f3b 18e3 4abc 7606 3dbd 5065 1e3d
00000380: 20da 163b a43b 083d 443b e1bc 9cd7 6dbd
00000390: 4ad0 7bbd 406b 7a3d 7844 d5bc 94db e13c
000003a0: a66f 23bd 2c85 6b3d 9479 36bd bc38 1abd
000003b0: 7075 24bc 2e60 6a3d 1895 b5bc f854 a43c
000003c0: 00b0 bebc 80e9 7c3a c83e 98bc a80d 03bd
000003d0: acb3 983c 3694 19bd 9c4d edbc e82c 683d
000003e0: 3495 9f3c 6a3b 623d de9e 62bd 784c d13c
000003f0: 328e 4ebd cc93 333d 4024 0abc 16f1 583d

network.6.weight f4 [128, 256]
-0.048635103 0.041236848 0.025343843 -0.058038324 0.041594602 -0.035939924 -0.021369584 0.028879642
-0.039410897 0.035456054 -0.04007467 -0.060614035 -0.035059564 -0.002818957 0.04490708 0.0505526
-0.020095132 -0.0149086565 0.01614128 -0.06195285 -0.038156167 0.039851435 -0.04009995 -0.054063976
0.0560828 0.023599692 -0.034034476 0.039497763 -0.038952522 -0.03852506 -0.057759337 0.020178072
0.023911871 -0.010563202 -0.028758846 -0.060416356 -0.020310275 0.0125725195 -0.021457508 0.052487582
0.060312085 -0.034841754 0.031641737 0.00044374168 0.010168709 -0.05824396 0.023436666 0.02441226
0.0024892092 -0.014239602 0.0066606104 -0.004000716 -0.017185688 0.0014813393 0.052403346 -0.03876976
0.026952088 -0.03547585 -0.025942132 0.045517758 0.04248631 0.03696108 0.032917343 -0.037423372
-0.040226996 -0.012900308 -0.03733039 0.06104125 -0.018371321 0.047338434 0.005390048 -0.060794473
0.053381942 0.009839565 -0.04906007 0.00035313517 0.032566704 0.017266087 0.01090809 -0.028820813
0.015186921 0.016871162 0.05822424 0.04082779 0.02429188 -0.057346433 0.034873873 0.0055168495
0.012968071 -0.041536056 0.004441306 -0.0123567805 -0.040507473 -0.02712474 0.036301926 -0.033185065
-0.05921436 -0.022072949 -0.01345899 -0.04235024 0.026155464 0.04042375 -0.009229824 0.020672172
0.012680873 0.011667736 0.019331545 0.004967183 -0.036237597 0.037551515 -0.022121392 0.014106311
-0.053050697 -0.05599594 -0.012923695 0.059762046 -0.0072919726 -0.012184791 0.0133982 0.04508405
0.008181587 -0.032342806 0.029864274 0.038531885 0.0018566176 0.03290665 -0.026268788 0.006678693
0.03531895 0.055880606 -0.014086217 0.0036848038 0.046473667 -0.060897738 -0.026496679 0.0015267059
0.020892143 -0.012519158 0.00830026 0.052234493 0.03525219 -0.044767305 0.033962414 -0.017982684
0.009486489 0.05354903 -0.05208973 0.049417846 -0.013855569 -0.012816712 -0.031740367 -0.053669058
-0.059371173 0.016621195 -0.014096841 -0.042659864 -0.019284055 0.018719517 0.046996914 -0.04184971
0.0043134913 0.05519139 0.05106335 -0.030174337 0.032577984 0.043605193 0.0293473 0.020914815
0.018719755 -0.011759892 0.051534273 0.0469731 0.04031539 0.023414582 0.05351726 0.032414116
-0.0128723085 -0.026884548 -0.014392428 -0.024210572 0.04309649 0.037146956 0.0010930002 0.018402271
0.044499874 0.027409188 0.0050701424 0.04387968 -0.0013952926 0.033505164 0.052759536 -0.05153714
0.04220579 0.0066071823 -0.043142267 0.018206254 -0.015066296 0.05600345 0.053852692 0.052598238
-0.023750752 0.048788413 -0.010856852 -0.027536705 0.0010637045 -0.033815898 -0.004639834 0.057579488
-0.059927344 -0.0047350675 -0.03397105 0.049092807 -0.040687606 0.011260651 0.05817108 -0.047823347
0.0431763 -0.016345933 0.043098412 -0.049152106 0.011087261 0.042897016 -0.010198526 0.041910894
-0.031242706 0.042095356 -0.0047379807 -0.04023367 -0.018872961 -0.0069629475 0.045093693 0.0160046
0.029199295 -0.03638106 -0.034106933 0.05775392 -0.01002302 -0.0067924038 -0.010885142 0.054241717
0.009298421 0.007014185 0.043126643 0.033701375 -0.00093161315 -0.025096565 0.015931748 0.018073536
0.03690757 -0.01706186 -0.012625247 -0.015438095 -0.052064463 -0.04344081 -0.038694903 0.050637797
00000000: 9a35 47bd f8e7 283d e49d cf3c 98b9 6dbd
00000010: 1a5f 2a3d be35 13bd 440f afbc 0095 ec3c
00000020: 526d 21bd 5e3a 113d 5625 24bd 6c46 78bd
00000030: 9e9a 0fbd 40be 38bb 7cf0 373d 3e10 4f3d
00000040: 8c9e a4bc 7043 74bc b83a 843c 46c2 7dbd
00000050: a449 1cbd 423b 233d d83f 24bd 3072 5dbd
00000060: 14b7 653d 2454 c13c bc67 0bbd 68c8 213d
00000070: ae8c 1fbd 74cc 1dbd 0e95 6cbd 7c4c a53c
00000080: d4e2 c33c 4811 2dbc ac97 ebbc 2477 77bd
00000090: bc61 a6bc f8fc 4d3c a8c7 afbc 38fd 563d
000000a0: ce09 773d 3ab6 0ebd c49a 013d 00a6 e839
000000b0: a89a 263c 3891 6ebd 40fe bf3c 38fc c73c
000000c0: 0022 233b 384d 69bc 4041 da3b 7018 83bb
000000d0: 00c9 8cbc 8029 c23a e4a4 563d 0acd 1ebd
000000e0: a0ca dc3c 204f 11bd 9884 d4bc d470 3a3d
000000f0: 2006 2e3d 8064 173d 56d4 063d 4049 19bd
00000100: 10c5 24bd d05b 53bc c0e7 18bd 6406 7a3d
00000110: 747f 96bc f2e5 413d 009f b03b a003 79bd
00000120: 06a7 5a3d 2036 213c 36f3 48bd 0025 b939
00000130: aa64 053d 9c71 8d3c d8b7 323c a019 ecbc
00000140: 90d2 783c 6435 8a3c 8a7c 6e3d 0a3b 273d
00000150: c4ff c63c 18e4 6abd e8d7 0e3d b0c6 b43b
00000160: 0878 543c b621 2abd 6088 913b 1874 4abc
00000170: 2aeb 25bd b434 debc 54b1 143d 10ed 07bd
00000180: c28a 72bd 54d2 b4bc 1883 5cbc 7277 2dbd
00000190: fc43 d63c 6093 253d b038 17bc b058 a93c
000001a0: 70c3 4f3c 082a 3f3c 305d 9e3c c0c3 a23b
000001b0: e06d 14bd 9ecf 193d ec37 b5bc 281e 673c
000001c0: b04b 59bd 005c 65bd e8bd 53bc 0cc9 743d
000001d0: 80f1 eebb b8a2 47bc 2084 5b3c 0eaa 383d
000001e0: 100c 063c e479 04bd eca5 f43c 9cd3 1d3d
000001f0: c059 f33a 20c9 063d a431 d7bc f0d8 da3b
00000200: 9aaa 103d 10e3 643d e0c9 66bc c07c 713b
00000210: 2c5b 3e3d e86f 79bd 900f d9bc c01b c83a
00000220: 0026 ab3c 281d 4dbc d0fd 073c d6f3 553d
00000230: 9a64 103d ec5d 37bd 2c1c 0b3d 6c50 93bc
00000240: 386d 1b3c 3a56 5b3d 0a5c 55bd 5e6a 4a3d
00000250: 7802 63bc 30fd 51bc 3002 02bd 16d4 5bbd
00000260: 302f 73bd 2c29 883c 70f6 66bc 1cbc 2ebd
00000270: 98f9 9dbc ac59 993c d67f 403d 9a6a 2bbd
00000280: 3058 8d3b 5e10 623d ce27 513d 2c30 f7bc
00000290: 7e70 053d 5c9b 323d c069 f03c 8c55 ab3c
000002a0: 2c5a 993c 90ac 40bc 9a15 533d de66 403d
000002b0: c021 253d f0cf bf3c ea34 5b3d aac4 043d
000002c0: 60e6 52bc fc3c dcbc 38ce 6bbc 4055 c6bc
000002d0: f285 303d 6827 183d 0043 8f3a 5cc0 963c
000002e0: 8045 363d 3c89 e03c 7023 a63b 2ebb 333d
000002f0: 40e2 b6ba b63c 093d 621a 583d 9c18 53bd
00000300: fadf 2c3d 1081 d83b f2b5 30bd 4825 953c
00000310: a0d8 76bc e063 653d a494 5c3d 4071 573d
00000320: f090 c2bc 5cd6 473d f0e0 31bc a894 e1bc
00000330: 006c 8b3a 8a82 0abd c009 98bb 78d8 6b3d
00000340: 6076 75bd a028 9bbb 3a25 0bbd 8a15 493d
00000350: 0ca8 26bd 987e 383c cc44 6e3d 6ae2 43bd
00000360: a2d9 303d e8e7 85bc f687 303d b853 49bd
00000370: 58a7 353c c8b4 2f3d b817 27bc c2aa 2b3d
00000380: b4f0 ffbc 2e6c 2c3d 1041 9bbb 10cc 24bd
00000390: 789b 9abc 7029 e4bb 2ab4 383d 141c 833c
000003a0: 5c33 ef3c 4e04 15bd b6b3 0bbd 608f 6c3d
000003b0: 9837 24bc d092 debb 9857 32bc 902c 5e3d
000003c0: 6858 183c 40d7 e53b 90a5 303d 740a 0a3d
000003d0: 8037 74ba 5097 cdbc 4c83 823c f40e 943c
000003e0: 642c 173d 50c5 8bbc 20da 4ebc 10f0 7cbc
000003f0: 8c41 55bd feee 31bd 8c7e 1ebd 9469 4f3d

network.6.bias f4 [128]
0.007234171 -0.049443513 0.02369614 0.043489642 0.031155579 -0.018853039 0.02253107 0.04392741
-0.059897162 0.05386044 -0.044823073 -0.061291 -0.030030072 0.05834356 0.050614834 0.02973447
0.04520569 -0.01158952 -0.019999921 0.015663214 -0.0029008389 -0.018417343 0.004811153 -0.035824828
0.036538452 0.025269024 0.0133860335 -0.03571433 0.03059131 -0.057487987 -0.050914027 0.028424703
0.028284267 -0.04285565 -0.039535828 0.05983498 -0.022731021 0.03949038 -0.01933153 0.021481544
0.034721315 0.05340775 0.052752562 0.046348408 -0.016136676 0.010898232 -0.016834661 1.9863248e-05
-0.008929335 -0.05814404 0.050256483 0.036442623 -0.055450216 0.039292403 0.013560966 0.038636856
0.060325496 -0.034519188 -0.04991006 0.040923715 0.049287543 0.027546741 0.0072292313 -0.015175901
-0.010949835 0.033282235 0.04951857 -0.026424177 -0.01809182 0.047810562 0.01642172 0.04479132
-0.022800691 0.005490452 0.027610019 -0.0016125366 0.0075657517 -0.058588594 -0.011755526 0.041310817
-0.01903601 -0.043196037 -0.05471895 -0.015691414 -0.006335005 0.009017944 -0.0016863421 0.010512762
-0.05646746 -0.01791896 -0.036322497 0.0072401688 0.03278532 -0.0140174255 0.05687137 -0.056182124
0.041228622 -0.0047929958 0.038681135 -0.018054381 0.04648094 0.004383683 -0.048303522 -0.054175243
0.030401975 -0.010301471 0.033676848 0.050646976 -0.026641883 -0.03266281 0.03882862 -0.0053749755
0.01278884 0.040340908 -0.010848835 -0.0354283 -0.016177036 -0.044819906 -0.03970904 0.034073323
-0.00452327 0.04562199 -0.010261156 -0.0011796132 -0.056069292 0.04827387 0.035522193 -0.037602007
00000000: a00c ed3b 4885 4abd 681e c23c 3222 323d
00000010: fc39 ff3c b071 9abc 1493 b83c 3aed 333d
00000020: ba56 75bd c49c 5c3d 6698 37bd 460c 7bbd
00000030: a001 f6bc a8f9 6e3d 8051 4f3d b495 f33c
00000040: 9a29 393d f8e1 3dbc e0d6 a3bc 2450 803c
00000050: 001c 3ebb f8df 96bc e0a6 9d3b 0ebd 12bd
00000060: 58a9 153d fc00 cf3c 1851 5b3c 3049 12bd
00000070: a09a fa3c 8678 6bbd 3a8b 50bd ecda e83c
00000080: 68b4 e73c 6889 2fbd 52f0 21bd 8615 753d
00000090: 6836 babc aac0 213d 285d 9ebc 10fa af3c
000000a0: f037 0e3d 16c2 5a3d 1213 583d d4d7 3d3d
000000b0: 1031 84bc 808e 323c d8e8 89bc 00a0 a637
000000c0: 584c 12bc 7228 6ebd bed9 4d3d dc44 153d
000000d0: c41f 63bd 12f1 203d d02e 5e3c ae41 1e3d
000000e0: de17 773d fe63 0dbd 7e6e 4cbd a09f 273d
000000f0: bce1 493d b4a9 e13c 30e3 ec3b 58a4 78bc
00000100: f066 33bc f452 083d fcd3 4a3d 8477 d8bc
00000110: 4c35 94bc 02d5 433d d886 863c 1a77 373d
00000120: 84c8 babc 40e9 b33b 682e e23c c05b d3ba
00000130: 20ea f73b 98fa 6fbd 409a 40bc 8835 293d
00000140: 68f1 9bbc 54ee 30bd fa20 60bd 488b 80bc
00000150: e095 cfbb 00c0 133c 4008 ddba b83d 2c3c
00000160: 6c4a 67bd c8ca 92bc e6c6 14bd f03e ed3b
00000170: e649 063d 58a9 65bc f4f1 683d 3a1f 66bd
00000180: 58df 283d 900e 9dbb 1c70 1e3d c8e6 93bc
00000190: cc62 3e3d 00a5 8f3b ead9 45bd dce6 5dbd
000001a0: 900d f93c 80c7 28bc bcf0 093d 3473 4f3d
000001b0: 1440 dabc 70c9 05bd c20a 1f3d 9020 b0bb
000001c0: 4888 513c 823c 253d 50bf 31bc 441d 11bd
000001d0: b485 84bc 1495 37bd f2a5 22bd 7890 0b3d
000001e0: f037 94bb 20de 3a3d 681e 28bc 409d 9aba
000001f0: eaa8 65bd d2ba 453d b87f 113d 9004 1abd

network.9.weight f4 [5, 128]
-0.060727708 0.03371418 -0.06582285 0.04068161 0.06314218 0.07403704 -0.072483815 0.08832173
-0.0528108 0.077019654 -0.051595055 0.04939674 0.08742184 0.010009908 -0.0025829484 -0.045441277
-0.0050817826 -0.086878404 0.043896332 -0.051241096 0.071824595 -0.078858905 -0.020810574 -0.053810947
-0.024623336 0.061595775 0.08066925 -0.054740503 0.0016101677 -0.055785388 -0.038281675 -0.012083312
-0.07392436 -0.0073932316 0.08084935 0.0013336316 -0.035667002 0.03393148 -0.030142013 -0.03890484
-0.005020838 0.060759254 -0.07597457 -0.007769592 -0.06974669 0.084813975 -0.080636874 -0.051625114
-0.079305194 0.029072748 0.08256814 -0.0048685195 -0.047530316 -0.073488034 0.041965418 0.08026643
-0.0650624 -0.033072125 -0.0644944 -0.07077851 -0.05135842 0.029060462 -0.083392195 0.01737644
0.026016364 0.0171071 -0.041870974 0.073787265 -0.08634444 -0.06979031 -0.04550272 -0.051993173
0.036888912 -0.03321965 -0.019557675 -0.003443113 -0.013324189 0.08504555 -0.0821497 -0.08593655
-0.046142947 0.041696288 -0.0050465264 0.05070308 0.02612917 0.08222419 -0.062528536 0.018770384
-0.019638725 -0.06649802 -0.029381316 -0.019239172 0.06663526 -0.04596474 0.051093645 0.043993227
-6.42318e-05 -0.03504075 0.05623342 -0.081305705 0.0076102247 0.0628319 -0.06585215 5.5128075e-05
0.05399639 0.01640112 0.06850809 0.04266228 0.08044748 -0.07910112 0.027107408 -0.012167047
-0.03256255 -0.07018459 0.033581503 0.029319802 -0.007556856 0.056821495 0.0676753 -0.04637073
0.015673634 0.07684164 0.080478795 0.02696725 -0.07200412 -0.04516472 -0.06505342 0.047948718
0.033958316 0.023563143 0.015480358 0.027507309 -0.0728933 0.03214564 0.034621783 0.026734462
-0.0038742542 -0.054907322 -0.0105101485 -0.081365414 0.08119685 -0.004733586 -0.08271047 0.084916994
-0.02574515 -0.047820415 0.06802692 -0.013918828 0.022718195 -0.011248562 -0.0014795229 -0.011689502
0.035787627 0.0039422684 0.034771707 -0.057004698 0.08257513 -0.014841338 -0.06454169 0.057780843
-0.08632933 -0.08828446 0.005420485 0.046764098 0.07782713 -0.08631445 0.03354627 -0.041933995
0.0666292 0.055544835 0.023293909 -0.043845903 0.036475264 0.044386562 0.04937751 0.08456434
0.07357811 0.033940416 0.082399525 0.08698634 0.067923166 0.018503973 -0.010722864 0.016652988
0.068762794 0.0343291 0.00056974107 0.042534716 0.054254297 -0.07543652 0.004031146 -0.014058639
-0.0503161 0.018838303 0.08271883 0.03545746 0.025671802 -0.008423079 0.081759155 0.07438457
0.05616077 -0.016177425 0.06502872 0.060559068 -0.0067534316 0.025070263 -0.025884982 0.013490248
-0.04158282 0.045716308 0.05978388 -0.059631236 0.010352299 0.06516382 -0.07267927 -0.019334234
-0.07051551 -0.029213097 -0.034692336 0.030173887 0.03245461 -0.039600853 -0.036050286 0.029967831
-0.035448723 0.06007497 0.06707474 -0.04751992 -0.005802683 0.019911246 0.06188939 0.03808759
0.059077237 0.00077357376 0.084470525 -0.025938751 -0.07276069 -0.027848234 0.0419365 0.012988309
-0.05298057 -0.002790037 -0.0806892 -0.009218422 -0.018094316 -0.07947843 0.023021072 -0.02833028
0.08084817 0.016855305 0.033208493 -0.06571469 -0.0036885974 0.07692003 -0.076390296 0.030033201
00000000: 9ebd 78bd e117 0a3d 21ce 86bd c3a1 263d
00000010: b050 813d bba0 973d 6572 94bd 06e2 b43d
00000020: 2350 58bd 7bbc 9d3d 5655 53bd 3c54 4a3d
00000030: 390a b33d 9900 243c af46 29bb a220 3abd
00000040: 1585 a6bb 4eed b1bd a4cc 333d 2fe2 51bd
00000050: c618 933d c780 a1bd f07a aabc de68 5cbd
00000060: e1b6 c9bc da4b 7c3d eb35 a53d 9437 60bd
00000070: 430c d33a 387f 64bd 3fcd 1cbd 15f9 45bc
00000080: a865 97bd ec42 f2bb 5894 a53d 40cd ae3a
00000090: 9017 12bd bcfb 0a3d 62ec f6bc ae5a 1fbd
000000a0: d885 a4bb b2de 783d 8e98 9bbd 1098 febb
000000b0: 5ad7 8ebd f3b2 ad3d f224 a5bd db74 53bd
000000c0: c36a a2bd f929 ee3c 7c19 a93d 1a88 9fbb
000000d0: 26af 42bd e580 96bd eee3 2b3d ba62 a43d
000000e0: 703f 85bd a376 07bd a415 84bd 53f4 90bd
000000f0: 355d 52bd 3510 ee3c 87c9 aabd 0959 8e3c
00000100: 4520 d53c 3024 8c3c e680 2bbd c71d 973d
00000110: 5bd5 b0bd 39ee 8ebd 0f61 3abd cbf6 54bd
00000120: d418 173d 5411 08bd 6b37 a0bc daa5 61bb
00000130: b34d 5abc 5c2c ae3d 1a3e a8bd 80ff afbd
00000140: 6300 3dbd bac9 2a3d 555d a5bb 08ae 4f3d
00000150: d70c d63c 2865 a83d f60e 80bd 59c4 993c
00000160: 64e1 a0bc 1d30 88bd 16b1 f0bc 789b 9dbc
00000170: 1178 883d 8645 3cbd 9247 513d 3e32 343d
00000180: 2fb4 86b8 e486 0fbd 0455 663d 9b83 a6bd
00000190: 315f f93b 03ae 803d 7edd 86bd 5239 6738
000001a0: 522b 5d3d a45b 863c f84d 8c3d a5be 2e3d
000001b0: a6c1 a43d c5ff a1bd 5b10 de3c 4b58 47bc
000001c0: 4f60 05bd f0bc 8fbd c28c 093d 1530 f03c
000001d0: 819f f7bb a8bd 683d 5999 8a3d 3cef 3dbd
000001e0: fe65 803c 265f 9d3d 11d2 a43d 6cea dc3c
000001f0: e576 93bd a4fe 38bd ba3a 85bd e065 443d
00000200: e017 0b3d 7e07 c13c 54a1 7d3c 0257 e13c
00000210: 1549 95bd 26ab 033d 92cf 0d3d 3b02 db3c
00000220: 33e7 7dbb 80e6 60bd c232 2cbc e9a2 a6bd
00000230: 894a a63d 331c 9bbb 1b64 a9bd f6e8 ad3d
00000240: 7ee7 d2bc 57df 43bd b351 8b3d cc0b 64bc
00000250: 821b ba3c e34b 38bc 8dec c1ba 5385 3fbc
00000260: 0c96 123d 252e 813b c76c 0e3d c27d 69bd
00000270: 261d a93d 1529 73bc 6f2e 84bd 9bab 6c3d
00000280: 6fcd b0bd 7cce b4bd 539e b13b b68b 3f3d
00000290: d563 9f3d a1c5 b0bd d067 093d fbc2 2bbd
000002a0: e474 883d fb82 633d ded2 be3c c397 33bd
000002b0: 1667 153d afce 353d 1240 4a3d 1230 ad3d
000002c0: 1fb0 963d 1b05 0b3d 15c1 a83d e525 b23d
000002d0: 4d1b 8b3d a595 973c f4ae 2fbc d96b 883c
000002e0: 82d3 8c3d ac9c 0c3d ad5a 153a e238 2e3d
000002f0: c139 5e3d 767e 9abd b417 843b 3556 66bc
00000300: 4118 4ebd c952 9a3c 7d68 a93d d73b 113d
00000310: ac4d d23c f400 0abc 5871 a73d f056 983d
00000320: d608 663d 8586 84bc c72d 853d c90c 783d
00000330: e44b ddbb 2760 cd3c be0c d4bc 3306 5d3c
00000340: bf52 2abd 0641 3b3d f1df 743d e23f 74bd
00000350: b09c 293c 9c74 853d ded8 94bd d462 9ebc
00000360: 706a 90bd 4e50 efbc 8d19 0ebd 3a2f f73c
00000370: 20ef 043d 8134 22bd 77a9 13bd 197f f53c
00000380: ae32 11bd 2c11 763d 7b5e 893d 3fa4 42bd
00000390: 6f24 bebb e91c a33c bb7f 7d3d bc01 1c3d
000003a0: f9fa 713d a8c9 4a3a e2fe ac3d 817d d4bc
000003b0: 8e03 95bd fb21 e4bc 9cc5 2b3d ebcc 543c
000003c0: 2702 59bd 0ed9 36bb 6140 a5bd dd08 17bc
000003d0: 883a 94bc 96c5 a2bd b096 bc3c e714 e8bc
000003e0: ba93 a53d 2314 8a3c a105 083d 6c95 86bd
000003f0: 65bc 71bb 4088 9d3d 8472 9cbd 3008 f63c

network.9.bias f4 [5]
0.025198199 0.07577933 -0.025701253 0.03679898 -0.06809724
00000000: 746c ce3c 3232 9b3d 6f8b d2bc 87ba 163d
00000010: 9176 8bbd

network.0.weight f4 [256, 33]
0.08012132 0.016399197 -0.048411477 -0.03137873 0.0022694862 0.021573668 0.13423222 -0.019306257
0.11155482 -0.15568954 0.0282853 -0.12402707 -0.08684966 0.031252645 0.0010254232 0.10465393
-0.16587083 -0.16377035 -0.0750315 -0.0021622 -0.13242984 0.02939014 0.0707636 0.015708001
0.105460964 -0.020147925 0.00021818311 0.0339073 0.06571418 0.1291966 -0.14100677 0.1273525
-0.09417933 -0.046531644 -0.07693774 -0.1717508 -0.08770801 -0.08355506 -0.00012691724 -0.11381374
-0.005508366 -0.12301526 0.1239898 0.08303093 -0.08381613 -0.10721259 -0.009110732 -0.1186113
-0.054842357 -0.10930469 0.11306954 -0.008756024 0.10689984 0.15276295 0.10005735 0.025645811
0.074509114 0.10425058 0.08090906 -0.04415315 0.14469428 -0.11650146 0.12955473 0.049776625
-0.0884669 0.0253313 -0.10872474 0.13900298 -0.097165935 0.060947727 0.023742322 0.03146263
0.048238553 -0.13969918 -0.10697833 -0.051680654 -0.17269307 -0.16805674 -0.016115356 -0.08812487
0.043967985 -0.14542328 -0.11771196 0.028739367 -0.054446086 -0.09965761 0.03409604 -0.054925554
-0.11385014 -0.07633688 -0.10778613 0.13164686 0.00517692 -0.12267748 0.080213584 0.11791087
-7.700946e-05 -0.11980556 0.105126366 0.12261915 0.16291147 0.12837023 0.081596375 -0.010989132
0.061510038 -0.14527473 0.059803795 -0.12426215 0.1678986 -0.006100536 0.15207557 0.070287086
0.017942458 0.09940959 -0.14361933 -0.029336413 -0.124801666 -0.12709866 -0.111629 -0.12359637
-0.013979448 -0.059413746 0.1666556 -0.0641013 -0.07503023 0.15163645 0.1644332 -0.006244241
-0.070419766 -0.06652837 -0.08243997 -0.16474682 0.14419374 -0.107424095 0.112071514 -0.023595754
-0.10645619 -0.036606617 0.033032037 -0.05841146 0.028437203 -0.11343072 -0.15597653 -0.028535211
0.01527236 0.08236848 0.109203115 0.12338495 0.080049165 0.13482302 -0.1401113 -0.01865588
0.036326032 0.12691285 0.12869939 -0.08922153 -0.13865843 0.03830176 -0.061026584 -0.12254986
0.16267581 0.09843837 -0.0057148244 0.008058913 -0.09555366 0.07873135 0.16038783 0.05782398
0.10181464 -0.084710844 0.10342695 -0.059025772 -0.048505563 0.15991908 0.073844336 -0.012744807
0.14564016 0.13553338 0.13316573 0.097553164 0.1334709 0.007071963 -0.095197 -0.17251244
0.011566423 -0.036433715 -0.14886759 -0.1027834 -0.00021471757 -0.05984036 0.0897782 -0.09169538
0.079693176 -0.12972176 -0.01295114 0.085097715 -0.1624538 -0.03072416 0.16569985 -0.10875753
-0.12806001 -0.11468639 0.15450656 -0.09830441 -0.03437876 -0.03291973 0.10981971 0.115886375
0.13989195 -0.15705903 0.010244396 -0.09913834 -0.014921782 -0.15468545 -0.10518208 -0.16738299
0.060796347 -0.042633608 -0.026111167 -0.14060827 0.038462356 0.05937214 -0.13436009 0.04865869
-0.1723855 0.012851159 0.115338825 0.050674696 -0.17031372 -0.029836632 0.0052130283 0.10283216
-0.06653595 -0.040824126 -0.08236034 -0.11244635 -0.14730051 -0.023989122 -0.0421342 -0.038068242
0.09228502 -0.06697412 0.11034713 0.13125171 -0.006501105 -0.16417795 -0.082974866 0.16967507
-0.13077964 -0.1315764 0.16731322 0.1356958 -0.121441595 0.029326245 0.12766169 0.01985543
00000000: a616 a43d 9c57 863c 1d4b 46bd fc86 00bd
00000010: a9bb 143b 43bb b03c 2c74 093e 2828 9ebc
00000020: da76 e43d 146d 1fbe 93b6 e73c e801 febd
00000030: 3cde b1bd c602 003d 7e67 863a cd54 d63d
00000040: 0bda 29be 6ab3 27be 1daa 99bd b2b3 0dbb
00000050: b09b 07be 97c3 f03c 82ec 903d 11ae 803c
00000060: ebfb d73d 430d a5bc 15c8 6439 62e2 0a3d
00000070: 2895 863d 1d4c 043e 1464 10be b268 023e
00000080: 18e1 c0bd f797 3ebd 8991 9dbd 71df 2fbe
00000090: 42a0 b3bd ea1e abbd 1615 05b9 2e17 e9bd
000000a0: 867f b4bb 6def fbbd 5dee fd3d 1f0c aa3d
000000b0: cba7 abbd 4692 dbbd 2e45 15bc 7bea f2bd
000000c0: 61a2 60bd 23db dfbd 0191 e73d 6d75 0fbc
000000d0: 4eee da3d e46d 1c3e deea cc3d 2a17 d23c
000000e0: 3c98 983d 5481 d53d a6b3 a53d efd9 34bd
000000f0: bd2a 143e 5198 eebd ffa9 043e 93e2 4b3d
00000100: 222e b5bd 9683 cf3c 14ab debd cc56 0e3e
00000110: effe c6bd 53a4 793d 427f c23c f5de 003d
00000120: ca95 453d 4d0d 0fbe 7417 dbbd 18af 53bd
00000130: 74d6 30be 1117 2cbe 5a04 84bc d07a b4bd
00000140: c617 343d d7e9 14be f812 f1bd d26e eb3c
00000150: dc02 5fbd 4a19 ccbd 4aa8 0b3d 9ef9 60bd
00000160: 432a e9bd 8356 9cbd f9be dcbd 6fce 063e
00000170: 27a3 a93b 553e fbbd 0547 a43d 417b f13d
00000180: 2480 a1b8 9e5c f5bd 7e4c d73d c01f fb3d
00000190: 44d2 263e 7c73 033e 001c a73d c30b 34bc
000001a0: f3f1 7b3d e6c2 14be d3f4 743d 277d febd
000001b0: 9ced 2b3e 01e7 c7bb b3b9 1b3e adf2 8f3d
000001c0: 10fc 923c 4197 cb3d f210 13be eb52 f0bc
000001d0: 0498 ffbd 2726 02be bf9d e4bd 1820 fdbd
000001e0: 0e0a 65bc d45b 73bd c4a7 2a3e 8b47 83bd
000001f0: 73a9 99bd 9646 1b3e 2d61 283e 7d9c ccbb
00000200: 3d38 90bd 0740 88bd 49d6 a8bd 64b3 28be
00000210: 86a7 133e 2a01 dcbd c085 e53d e24b c1bc
00000220: b405 dabd d2f0 15bd 9a4c 073d db40 6fbd
00000230: 23f5 e83c 5e4e e8bd 50b8 1fbe adc2 e9bc
00000240: ec38 7a3c ceb0 a83d e2a5 df3d 40b1 fc3d
00000250: d1f0 a33d 0c0f 0a3e 5679 0fbe 37d4 98bc
00000260: 9bca 143d 71f5 013e c6c9 033e c7b9 b6bd
00000270: 7afc 0dbe 4ee2 1c3d 03f7 79bd 6cfb fabd
00000280: 7d94 263e 0e9a c93d 6c43 bbbb 8809 043c
00000290: a3b1 c3bd e73d a13d b53c 243e d6d8 6c3d
000002a0: 3284 d03d e17c adbd 82d1 d33d 02c5 71bd
000002b0: c5ad 46bd d4c1 233e b33b 973d 98cf 50bc
000002c0: b222 153e 43c9 0a3e 995c 083e f4c9 c73d
000002d0: 98ac 083e edbb e73b a5f6 c2bd 1aa7 30be
000002e0: 1881 3d3c 853b 15bd bf70 18be 1a80 d2bd
000002f0: cf25 61b9 2a1b 75bd a2dd b73d caca bbbd
00000300: 2d36 a33d c8d5 04be 0531 54bc b647 ae3d
00000310: 4a5a 26be 3cb1 fbbc 39ad 293e 45bc debd
00000320: 2a22 03be b3e0 eabd f836 1e3e d353 c9bd
00000330: bed0 0cbd d7d6 06bd 28e9 e03d d655 ed3d
00000340: d63f 0f3e 15d4 20be 1cd8 273c 0b09 cbbd
00000350: 7d7a 74bc dd65 1ebe b469 d7bd 7266 2bbe
00000360: 9705 793d 94a0 2ebd 16e7 d5bc 9dfb 0fbe
00000370: b48a 1d3d 3330 733d b195 09be 564e 473d
00000380: d385 30be ab8d 523c c336 ec3d 4590 4f3d
00000390: b866 2ebe f46b f4bc 0dd2 aa3b ab99 d23d
000003a0: 0044 88bd 3337 27bd 8aac a8bd 464a e6bd
000003b0: f2d5 16be d684 c4bc e994 2cbd 72ed 1bbd
000003c0: eeff bc3d ba29 89bd adfd e13d d966 063e
000003d0: 3907 d5bb 441e 28be baee a9bd 4dbf 2d3e
000003e0: 19eb 05be f7bb 06be 2854 2b3e d7f3 0a3e
000003f0: 5fb6 f8bd 983d f03c bfb9 023e dba7 a23c
